AI2048/models/DQN.pt (torch, 7791 bytes, 18 tensors)

l1.weight f4 [8, 16]
0	0xbceee77d	-0.029163117
1	0xc005838f	-2.0861547
2	0x41ad6113	21.6724
3	0x3ec45bb9	0.3835123
4	0xbdd2ea15	-0.10298554
5	0x3de7a533	0.11310806
6	0xc1e958e3	-29.168402
7	0xc0562a68	-3.3463383
8	0x3e1c9f65	0.15295179
9	0x3d5487c6	0.051887296
10	0xbeb3750f	-0.35050246
11	0x3ef390e9	0.47571495
12	0xbf0d9e85	-0.55320007
13	0xbee7e838	-0.45294356
14	0xbdffc576	-0.124888346
15	0x40287aae	2.6324878
16	0xbee00e3d	-0.43760863
17	0x3c476e17	0.012172244
18	0x4180f655	16.12028
19	0xc0532a65	-3.2994626
20	0xbf99fa7d	-1.2029568
21	0x3e5ef34b	0.21772496
22	0xc17f63ce	-15.961866
23	0xc0b7ac53	-5.7397857
24	0xbfebc928	-1.8420763
25	0x3f41897e	0.7560042
26	0xc0ce3f3f	-6.4452205
27	0xc1210091	-10.062638
28	0xbe90c032	-0.28271633
29	0xc084853a	-4.141263
30	0xc14a30e0	-12.636932
31	0xc10c0572	-8.751329
32	0x3ed2a78c	0.41143453
33	0x3f911311	1.1333944
34	0x40bfc66d	5.992972
35	0xbfcab2a2	-1.5835764
36	0xbb50c15b	-0.003185353
37	0xbfdc680b	-1.7219251
38	0xc147c63c	-12.485897
39	0xc09f1585	-4.971377
40	0x3d920fef	0.07131945
41	0xc085b30d	-4.178107
42	0xc10623c3	-8.383731
43	0x40787877	3.8823526
44	0x3df1a1a8	0.117984116
45	0xc0d004c8	-6.5005836
46	0x3eee4f27	0.46544763
47	0xc04ed7c0	-3.2319183
48	0xc121c738	-10.111137
49	0xc0c68787	-6.204044
50	0xc080b58e	-4.0221624
51	0xc0ae02da	-5.437848
52	0xc0df7fc9	-6.984349
53	0x3f4b5538	0.7942691
54	0xbfd2f112	-1.6479819
55	0xc0e31504	-7.0963154
56	0xc07daf64	-3.96383
57	0x3f9dcbeb	1.2327856
58	0xc084629b	-4.137037
59	0xc10d80be	-8.843931
60	0xbfd93548	-1.6969385
61	0xc052b8f3	-3.2925384
62	0xc105dbc0	-8.36615
63	0xc12a6a16	-10.6509
64	0xbef15d0d	-0.47141305
65	0xbd1b7494	-0.037952974
66	0xbe81cc0b	-0.25350985
67	0xbec07822	-0.37591654
68	0xbdc19901	-0.09453011
69	0xbe81fa0a	-0.25386077
70	0xbea570d3	-0.3231264
71	0xbeba9da1	-0.36448386
72	0xbe66b678	-0.22530544
73	0xbf11b7b3	-0.5692093
74	0xbe9334e0	-0.28751278
75	0xbe0846e9	-0.133083
76	0xbe9000da	-0.2812565
77	0xbf06da8a	-0.52677214
78	0xbeca53d7	-0.3951709
79	0xbece3e97	-0.40282127
80	0x3d9a4923	0.07533481
81	0xbf162867	-0.586554
82	0x41d865d7	27.049726
83	0xbfc440eb	-1.5332311
84	0xbd77da78	-0.060511082
85	0x3d005bf4	0.031337693
86	0xc134865e	-11.2828045
87	0xc022cfaa	-2.5439248
88	0x3c52d873	0.012868988
89	0x3d020e72	0.031752057
90	0x3e1a27bc	0.1505422
91	0x401b17dc	2.4233313
92	0xbd946430	-0.07245672
93	0x3d8a893c	0.06764457
94	0x3e122d6c	0.1427514
95	0x3eff9f74	0.4992634
96	0x3f11a830	0.5689726
97	0xbffef19a	-1.9917481
98	0xc08f1852	-4.471719
99	0xbfb10650	-1.3830051
100	0xbf35a9ac	-0.70962024
101	0xc0f6d2d9	-7.7132382
102	0xbfaa9420	-1.3326454
103	0xbff49d79	-1.9110557
104	0xbfb997c5	-1.4499441
105	0xc08bb3af	-4.365684
106	0xbec930c0	-0.39295006
107	0xbf64d8f8	-0.8939357
108	0xc00af675	-2.1712925
109	0xc02a3cb2	-2.6599545
110	0xbf00aaab	-0.5026042
111	0x4003d91b	2.060126
112	0xc0ae20c0	-5.441498
113	0x40537f95	3.304662
114	0xc13b3eb1	-11.7028055
115	0xc0d4148d	-6.6275086
116	0xbe82cd34	-0.25547183
117	0xc0d08af6	-6.516963
118	0xc047312b	-3.112376
119	0xc0a23507	-5.068973
120	0xc0a810d1	-5.252053
121	0xc022e65e	-2.5453105
122	0xc0bf4fea	-5.978505
123	0xc0c4e2a9	-6.1526685
124	0xbe72b27a	-0.23700896
125	0xc01ba6c8	-2.4320545
126	0xc1103750	-9.013504
127	0xc14af435	-12.684621

l1.bias f4 [8]
0	0x41c96d7d	25.178461
1	0xc1a0d36b	-20.103231
2	0x4205e3b5	33.47237
3	0x428f61c6	71.69096
4	0xbe443b4f	-0.1916325
5	0x40ef5749	7.479405
6	0x427e6f9b	63.60899
7	0xc1a644e2	-20.783634

l2.weight f4 [8, 8]
0	0xbfb38215	-1.4024073
1	0xbf1fabbb	-0.62371415
2	0xbf88f73c	-1.070045
3	0xbfdf8ce7	-1.7464875
4	0x3d301f44	0.042998567
5	0xbf194ae8	-0.5987992
6	0x3c43fae4	0.011961672
7	0xc081417c	-4.0392437
8	0xc11c530a	-9.770273
9	0xc0adea77	-5.434871
10	0xc158850e	-13.532484
11	0xc0b31f31	-5.5975575
12	0x3d949bf9	0.07256312
13	0xbcb3c34f	-0.021943716
14	0xc11bf760	-9.747894
15	0xc064df9e	-3.5761485
16	0xc1a914df	-21.135191
17	0xc158044f	-13.501052
18	0xc1b85286	-23.040295
19	0xc057dad3	-3.372731
20	0x3c8a710a	0.016899604
21	0xbdb62dca	-0.08895452
22	0xc1a63874	-20.777565
23	0xc0f3a89e	-7.614333
24	0xc09156b0	-4.541832
25	0xbd804d6c	-0.06264767
26	0xc135946a	-11.348734
27	0xc09160ac	-4.543051
28	0xbd74287a	-0.059608914
29	0xbede5b1c	-0.43428886
30	0xc17e9dea	-15.913553
31	0xc01e19bd	-2.470321
32	0xc07493ad	-3.8215134
33	0xc094fc20	-4.655777
34	0xc09d87f8	-4.9228477
35	0xc0c3b15d	-6.115401
36	0xbe3e41e3	-0.18579821
37	0xc106caba	-8.424494
38	0xc0238bd4	-2.5554094
39	0xbd868dd5	-0.06570021
40	0xc023c098	-2.55863
41	0xc0c28bb5	-6.079554
42	0xc00d05c1	-2.2034762
43	0xc0c1bb1b	-6.05409
44	0xbe816c59	-0.25277975
45	0x3f65ec1e	0.8981341
46	0xbeee7a1c	-0.46577537
47	0xbf5df966	-0.86708677
48	0x3e2ab763	0.16671519
49	0xbe2094b5	-0.15681727
50	0x3e47c2a6	0.19507846
51	0x3f2fde4b	0.6869857
52	0xbeb101d3	-0.34571704
53	0xbdc1ef90	-0.09469521
54	0x3f6dd9c1	0.9291039
55	0xbfae9309	-1.3638622
56	0xc112a17d	-9.164426
57	0xbf2294ca	-0.63508284
58	0xc0b3ab17	-5.614635
59	0xbf06b33e	-0.5261725
60	0x3d94ffe4	0.0727537
61	0xbfab6f2e	-1.3393304
62	0xc0707393	-3.757054
63	0xbf65a0d6	-0.8969854

l2.bias f4 [8]
0	0xc1664f15	-14.394307
1	0xbf633d77	-0.8876566
2	0x40d1a5e9	6.5515027
3	0xc0db888b	-6.860418
4	0xc00c71f7	-2.1944559
5	0x40efd24e	7.494422
6	0xbf50489a	-0.8136078
7	0xbcaf7fb8	-0.021423206

l3.weight f4 [4, 8]
0	0x3ef726af	0.482717
1	0xbf46c5ae	-0.77645385
2	0x3ec83dff	0.391098
3	0x3e4b2a1f	0.19840287
4	0x3faeaa21	1.3645669
5	0x3e098e17	0.13433109
6	0xbe4d4d3c	-0.20048994
7	0xbe87dd3e	-0.26535982
8	0xbf3d61fc	-0.7397764
9	0x3e033ad0	0.12815404
10	0xbe8a8e62	-0.27061754
11	0xbde7eeaf	-0.11324822
12	0x3fb1c091	1.3886892
13	0x3e13904d	0.14410515
14	0xbe3f201a	-0.1866459
15	0xbeede61b	-0.4646462
16	0x3d85c31b	0.06531354
17	0xbf411091	-0.75415903
18	0x3e8c2b1d	0.27376643
19	0xbea521a5	-0.3225223
20	0x4032a0c0	2.7910614
21	0x3d83b7d6	0.06431548
22	0xbe24bb32	-0.16087034
23	0xbf0f639d	-0.5601137
24	0x3f3db87a	0.74109614
25	0x3f0586ea	0.5215899
26	0x3f6343e8	0.8877549
27	0xbda90663	-0.08253171
28	0xbf2ccb1c	-0.6749742
29	0x3df7e544	0.12104276
30	0xbe149e6d	-0.1451356
31	0x3ec7d7c1	0.39031795

l3.bias f4 [4]
0	0x4200207a	32.031715
1	0x42004367	32.065823
2	0x41e6c0f4	28.844215
3	0x41e44038	28.531357

square_avg f4 [8, 16]
0	0x3dfb02c7	0.12256389
1	0x3cc443d6	0.023958128
2	0x3bab8128	0.0052339025
3	0x3a5864ac	0.00082547474
4	0x3e4cd635	0.20003588
5	0x3d9fe7e4	0.078079015
6	0x3ab39a4e	0.0013702603
7	0x3a2bbfa8	0.00065516913
8	0x3e2cc774	0.1687296
9	0x3dcc9650	0.09989607
10	0x3c14a09a	0.0090714935
11	0x39ff6def	0.00048719297
12	0x3ddc41cc	0.10754737
13	0x3c9df8c4	0.01928366
14	0x3c124845	0.008928363
15	0x3a481d44	0.00076337554
16	0x3bf7e47f	0.0075650807
17	0x3b345692	0.002751742
18	0x3aa536cd	0.0012604833
19	0x388d6479	6.7421184e-05
20	0x3b47b192	0.003047083
21	0x3b274aca	0.0025526755
22	0x39b95f21	0.00035356826
23	0x37a67a03	1.9845558e-05
24	0x39b291a7	0.00034059325
25	0x3cc0cae6	0.02353425
26	0x3864cfbe	5.455291e-05
27	0x360d3c66	2.1045794e-06
28	0x3cc76e05	0.024344454
29	0x3920290b	0.00015274079
30	0x37491f39	1.1987803e-05
31	0x35e6bddb	1.7191591e-06
32	0x3d102ecb	0.035200875
33	0x3c9f421a	0.0194407
34	0x3a059f1a	0.00050972553
35	0x394819fd	0.00019083168
36	0x3cb3eb1b	0.021962693
37	0x3b60847c	0.0034258654
38	0x39a67572	0.0003174949
39	0x3872ea42	5.7915466e-05
40	0x3bcf52bb	0.006327001
41	0x39ce8f3b	0.00039398097
42	0x37f57ade	2.926349e-05
43	0x3854ae2b	5.0706945e-05
44	0x3b352022	0.002763756
45	0x38453ef1	4.702708e-05
46	0x3952e2bd	0.00020111627
47	0x379d8dd1	1.8781897e-05
48	0x36a7a492	4.9961463e-06
49	0x35c64f24	1.4775183e-06
50	0x36621c20	3.3692995e-06
51	0x36a4dc3f	4.913221e-06
52	0x3a2fd671	0.00067076745
53	0x3bfcbc76	0.007712896
54	0x36870c3b	4.0247373e-06
55	0x35ea1796	1.7441223e-06
56	0x374fdf27	1.2390118e-05
57	0x3a51a99e	0.0007997992
58	0x357f8cb5	9.519966e-07
59	0x35cc0167	1.5199593e-06
60	0x36b920d1	5.51725e-06
61	0x3680339c	3.8207054e-06
62	0x375385e2	1.2607752e-05
63	0x35fc1050	1.8780211e-06
64	0x00000032	7e-44
65	0x00000032	7e-44
66	0x00000032	7e-44
67	0x00000032	7e-44
68	0x00000032	7e-44
69	0x00000032	7e-44
70	0x00000032	7e-44
71	0x00000032	7e-44
72	0x00000032	7e-44
73	0x00000032	7e-44
74	0x00000032	7e-44
75	0x00000032	7e-44
76	0x00000032	7e-44
77	0x00000032	7e-44
78	0x00000032	7e-44
79	0x00000032	7e-44
80	0x3cb9d32c	0.022683702
81	0x3c0a86c5	0.008454983
82	0x3a96da5c	0.0011509168
83	0x3943fdaa	0.00018691146
84	0x3d67f7af	0.056632694
85	0x3ca71ef1	0.020400496
86	0x3a816802	0.0009872916
87	0x38d7f7b8	0.0001029814
88	0x3d23e85f	0.04001653
89	0x3d091201	0.033464435
90	0x3ae3479c	0.0017340067
91	0x38d496c1	0.00010137028
92	0x3c961a21	0.018323006
93	0x3c426564	0.011864994
94	0x39ed05e7	0.0004520856
95	0x38b76001	8.744002e-05
96	0x3c9d7ed8	0.019225523
97	0x3a2a6379	0.0006499808
98	0x390868f1	0.00013009064
99	0x395acd07	0.00020866479
100	0x3ad2d3ce	0.0016084851
101	0x39494acd	0.00019196719
102	0x39f61236	0.00046934345
103	0x38e9ecd3	0.00011154418
104	0x39ab0a35	0.00032623266
105	0x38b3c322	8.5717315e-05
106	0x37fb56da	2.9961975e-05
107	0x37d7e66b	2.5737294e-05
108	0x39938828	0.0002813947
109	0x38c408e4	9.347664e-05
110	0x37e5cd89	2.7394637e-05
111	0x391c71c1	0.00014919696
112	0x3288a536	1.5907613e-08
113	0x37caf2e7	2.4193387e-05
114	0x336d052f	5.5185577e-08
115	0x326d02ab	1.3795822e-08
116	0x32116000	8.461939e-09
117	0x336ea7ea	5.556641e-08
118	0x376d09e7	1.4128606e-05
119	0x346d00cd	2.2072636e-07
120	0x2ed57f87	9.708772e-11
121	0x366d01ce	3.5316802e-06
122	0x356d00f8	8.829079e-07
123	0x336d00c2	5.518155e-08
124	0x30146e3b	5.3998733e-10
125	0x2ccf7f34	5.8974162e-12
126	0x356d00f8	8.829079e-07
127	0x346d00cb	2.2072633e-07

momentum_buffer f4 [8, 16]
0	0xbf26d762	-0.651724
1	0x3f2017b0	0.62536144
2	0x40260134	2.5938234
3	0x400c1380	2.1886902
4	0x406f4a6c	3.7389174
5	0xc0156a44	-2.334611
6	0x3fba2fc6	1.4545829
7	0xbfeacf19	-1.8344451
8	0xbe6ce147	-0.23132811
9	0xbf355430	-0.70831585
10	0x3e5815fa	0.21102133
11	0x3fe828e3	1.8137478
12	0x3fe10854	1.7580667
13	0x3e7df35c	0.24799865
14	0xbfcb3b3f	-1.5877455
15	0x3da3dc18	0.08000964
16	0xc02d4220	-2.707161
17	0xbfda3557	-1.7047528
18	0xbfec39e8	-1.8455172
19	0xbf322d54	-0.69600415
20	0x40bba0c6	5.8633757
21	0xbefb86bd	-0.49126235
22	0xbfb0b8f8	-1.3806448
23	0x40201d9e	2.5018077
24	0xc08f08ec	-4.469839
25	0x404919ea	3.1422067
26	0xbf5fc4c8	-0.8740964
27	0xc0854e9b	-4.1658454
28	0xc010cfbe	-2.2626796
29	0xc01a611c	-2.412177
30	0xbf138190	-0.5761957
31	0x3fb03c00	1.376831
32	0xc037040f	-2.8596227
33	0x3fc43901	1.5329896
34	0xbf1627bb	-0.58654374
35	0xc02b926e	-2.6808124
36	0xbfee4a0c	-1.8616347
37	0xbfac3772	-1.345442
38	0xbfeb4839	-1.8381416
39	0x3fc0dad8	1.5066786
40	0xbfa9e9b2	-1.3274443
41	0x3e0252c4	0.12726885
42	0x3c8001ba	0.015625823
43	0x3f52c3d9	0.8233009
44	0xbfdcdabd	-1.7254254
45	0x3db0c360	0.08631015
46	0xbead7c52	-0.3388391
47	0xbeeee600	-0.4665985
48	0xbffacaf8	-1.9593191
49	0xc07574c8	-3.8352528
50	0xc063a2b1	-3.556805
51	0xbfc8d19c	-1.5688968
52	0x3f1dc223	0.61624354
53	0x3f1bb366	0.60820615
54	0xbe97b908	-0.29633355
55	0xbf219252	-0.6311389
56	0xbfa4d11c	-1.2876315
57	0xbda00f94	-0.07815471
58	0xc0a5e479	-5.1841397
59	0xbf3e77fd	-0.7440184
60	0xbf91f563	-1.1403011
61	0x3dc3643b	0.09540602
62	0xbfedfd6f	-1.8592967
63	0xbfeac38d	-1.8340927
64	0x00000004	6e-45
65	0x00000004	6e-45
66	0x00000004	6e-45
67	0x00000004	6e-45
68	0x00000004	6e-45
69	0x00000004	6e-45
70	0x00000004	6e-45
71	0x00000004	6e-45
72	0x00000004	6e-45
73	0x00000004	6e-45
74	0x00000004	6e-45
75	0x00000004	6e-45
76	0x00000004	6e-45
77	0x00000004	6e-45
78	0x00000004	6e-45
79	0x00000004	6e-45
80	0x3f8922a0	1.0713692
81	0xc0a6dd40	-5.214508
82	0xc01df77a	-2.4682298
83	0xbf88408d	-1.0644699
84	0xc03e89bb	-2.9771564
85	0x3f800235	1.0000674
86	0xbf240217	-0.6406569
87	0xc03795a4	-2.8685083
88	0xc099377f	-4.7880244
89	0x3f311e4c	0.69186854
90	0xc007e4a3	-2.1233299
91	0xc07ffbf5	-3.9997532
92	0xc0099210	-2.14954
93	0xc0840a77	-4.1262774
94	0x4013c044	2.30861
95	0xbfe95a20	-1.8230629
96	0x4061bc42	3.5271153
97	0x3f80215e	1.0010183
98	0xbefd8db4	-0.49522173
99	0xbf1f91d2	-0.6233188
100	0x405df144	3.4678507
101	0xbf0651d3	-0.52468604
102	0xbf67ede0	-0.90597343
103	0x3fcb298a	1.5872052
104	0x4032512c	2.7862043
105	0x3fafd53e	1.3736951
106	0xc00101db	-2.0157382
107	0x40624e68	3.5360355
108	0xbf09ad65	-0.53780204
109	0x3dfa5798	0.122237384
110	0x3e81fb8a	0.25387222
111	0xc0534de4	-3.301629
112	0x3f686804	0.90783715
113	0x3e3eea74	0.18644124
114	0x938b19e8	-3.511408e-27
115	0x938b1a8b	-3.5114706e-27
116	0x401e115b	2.4698093
117	0x938a9fad	-3.499355e-27
118	0x3cf9d6ae	0.030497875
119	0x938b1b2e	-3.5115334e-27
120	0x00000004	6e-45
121	0x938b1aee	-3.5115088e-27
122	0x938b1b2e	-3.5115334e-27
123	0x938b1b2e	-3.5115334e-27
124	0x00000004	6e-45
125	0x00000004	6e-45
126	0x938b1b2e	-3.5115334e-27
127	0x938b1b2e	-3.5115334e-27

square_avg f4 [8]
0	0x392bf060	0.00016397377
1	0x361abe2c	2.3058483e-06
2	0x384652ba	4.7283924e-05
3	0x35fb0eaf	1.8705231e-06
4	0x00000032	7e-44
5	0x374861c6	1.1943694e-05
6	0x37e18cac	2.6887596e-05
7	0x3188a445	3.9767962e-09

momentum_buffer f4 [8]
0	0xbd04a260	-0.032381415
1	0xbf79787c	-0.9744947
2	0xc006193b	-2.09529
3	0xc0311417	-2.7668512
4	0x00000004	6e-45
5	0xc03fab7c	-2.9948416
6	0x3ea8e304	0.329857
7	0x3f68640f	0.9077768

square_avg f4 [8, 8]
0	0x00000032	7e-44
1	0x00000032	7e-44
2	0x00000032	7e-44
3	0x00000032	7e-44
4	0x00000032	7e-44
5	0x00000032	7e-44
6	0x00000032	7e-44
7	0x00000032	7e-44
8	0x00000032	7e-44
9	0x00000032	7e-44
10	0x00000032	7e-44
11	0x00000032	7e-44
12	0x00000032	7e-44
13	0x00000032	7e-44
14	0x00000032	7e-44
15	0x00000032	7e-44
16	0x31bfb349	5.579214e-09
17	0x00000032	7e-44
18	0x309ffd23	1.1640718e-09
19	0x330c534b	3.2672045e-08
20	0x00000032	7e-44
21	0x3e47f623	0.19527487
22	0x2f96ba32	2.741714e-10
23	0x2d72f3b6	1.3810222e-11
24	0x00000032	7e-44
25	0x00000032	7e-44
26	0x00000032	7e-44
27	0x00000032	7e-44
28	0x00000032	7e-44
29	0x00000032	7e-44
30	0x00000032	7e-44
31	0x00000032	7e-44
32	0x00000032	7e-44
33	0x00000032	7e-44
34	0x00000032	7e-44
35	0x00000032	7e-44
36	0x00000032	7e-44
37	0x00000032	7e-44
38	0x00000032	7e-44
39	0x00000032	7e-44
40	0x3cda86a2	0.026675526
41	0x373083f8	1.0521144e-05
42	0x3aa50f2b	0.0012593021
43	0x320c13b0	8.153549e-09
44	0x00000032	7e-44
45	0x3ea57788	0.32317758
46	0x38c34831	9.311771e-05
47	0x2d0c07d0	7.959813e-12
48	0x3ef97981	0.48725513
49	0x3cdb6a53	0.026784098
50	0x3de796d3	0.11308064
51	0x3b3b1cc7	0.0028551088
52	0x00000032	7e-44
53	0x3f1869c7	0.59536403
54	0x3cb79384	0.022409208
55	0x336a9536	5.4618077e-08
56	0x00000032	7e-44
57	0x00000032	7e-44
58	0x00000032	7e-44
59	0x00000032	7e-44
60	0x00000032	7e-44
61	0x00000032	7e-44
62	0x00000032	7e-44
63	0x00000032	7e-44

momentum_buffer f4 [8, 8]
0	0x80000004	-6e-45
1	0x80000004	-6e-45
2	0x00000004	6e-45
3	0x00000004	6e-45
4	0x80000004	-6e-45
5	0x00000004	6e-45
6	0x00000004	6e-45
7	0x00000004	6e-45
8	0x00000004	6e-45
9	0x80000004	-6e-45
10	0x00000004	6e-45
11	0x00000004	6e-45
12	0x00000004	6e-45
13	0x00000004	6e-45
14	0x80000004	-6e-45
15	0x80000004	-6e-45
16	0x3ff0aa81	1.8802034
17	0x80000004	-6e-45
18	0x40048393	2.0705307
19	0xbf256544	-0.64607644
20	0x80000004	-6e-45
21	0xbfacc624	-1.3497968
22	0x3e4bb19d	0.19891973
23	0x138b16ab	3.5110885e-27
24	0x00000004	6e-45
25	0x00000004	6e-45
26	0x00000004	6e-45
27	0x00000004	6e-45
28	0x00000004	6e-45
29	0x00000004	6e-45
30	0x80000004	-6e-45
31	0x00000004	6e-45
32	0x80000004	-6e-45
33	0x80000004	-6e-45
34	0x00000004	6e-45
35	0x80000004	-6e-45
36	0x80000004	-6e-45
37	0x80000004	-6e-45
38	0x00000004	6e-45
39	0x00000004	6e-45
40	0xc05c8e03	-3.4461677
41	0x403a9eda	2.9159455
42	0xbdfd45d0	-0.12366831
43	0xbeb72493	-0.3577009
44	0x00000004	6e-45
45	0xc054aa58	-3.322897
46	0x3ed5b452	0.41739136
47	0x12ca166b	1.2753519e-27
48	0x3e9b49dc	0.30329788
49	0xbbffcd00	-0.0078064203
50	0x3dac542c	0.08414492
51	0xbef1d65b	-0.47233853
52	0x00000004	6e-45
53	0x3e811914	0.25214446
54	0x3f87eb48	1.0618677
55	0xc01eb84d	-2.4799988
56	0x00000004	6e-45
57	0x00000004	6e-45
58	0x00000004	6e-45
59	0x00000004	6e-45
60	0x80000004	-6e-45
61	0x80000004	-6e-45
62	0x80000004	-6e-45
63	0x00000004	6e-45

square_avg f4 [8]
0	0x00000032	7e-44
1	0x00000032	7e-44
2	0x3a01c6cd	0.0004950583
3	0x00000032	7e-44
4	0x00000032	7e-44
5	0x382a53a5	4.060906e-05
6	0x3869050e	5.5556236e-05
7	0x00000032	7e-44

momentum_buffer f4 [8]
0	0x00000004	6e-45
1	0x00000004	6e-45
2	0x3fda2cc9	1.7044917
3	0x00000004	6e-45
4	0x00000004	6e-45
5	0xbf00177e	-0.50035846
6	0x3ef5178c	0.47869527
7	0x00000004	6e-45

square_avg f4 [4, 8]
0	0x00000032	7e-44
1	0x00000032	7e-44
2	0x3cf5d427	0.030008389
3	0x00000032	7e-44
4	0x00000032	7e-44
5	0x3f0cec53	0.550481
6	0x3e8c5006	0.27404803
7	0x00000032	7e-44
8	0x00000032	7e-44
9	0x00000032	7e-44
10	0x3ad275c9	0.0016056831
11	0x00000032	7e-44
12	0x00000032	7e-44
13	0x3f2a39ea	0.6649462
14	0x3e9f2ab2	0.3108726
15	0x00000032	7e-44
16	0x00000032	7e-44
17	0x00000032	7e-44
18	0x3a82e824	0.0009987396
19	0x00000032	7e-44
20	0x00000032	7e-44
21	0x3cfad1b6	0.030617576
22	0x3e61bb4f	0.22044109
23	0x00000032	7e-44
24	0x00000032	7e-44
25	0x00000032	7e-44
26	0x3c5557ba	0.013021404
27	0x00000032	7e-44
28	0x00000032	7e-44
29	0x3f0231e8	0.508574
30	0x3e0253ab	0.1272723
31	0x00000032	7e-44

momentum_buffer f4 [4, 8]
0	0x00000004	6e-45
1	0x80000004	-6e-45
2	0x3fb3624a	1.401437
3	0x80000004	-6e-45
4	0x00000004	6e-45
5	0xc04807bd	-3.1254723
6	0xc017336f	-2.3625143
7	0x80000004	-6e-45
8	0x80000004	-6e-45
9	0x00000004	6e-45
10	0xc022c072	-2.542996
11	0x80000004	-6e-45
12	0x80000004	-6e-45
13	0x3df1ec40	0.11812639
14	0x3e9ac8aa	0.3023122
15	0x00000004	6e-45
16	0x80000004	-6e-45
17	0x80000004	-6e-45
18	0x40ab616d	5.355643
19	0x80000004	-6e-45
20	0x00000004	6e-45
21	0x410d9f95	8.85146
22	0x3de977c1	0.11399794
23	0x80000004	-6e-45
24	0x00000004	6e-45
25	0x80000004	-6e-45
26	0x3f939b00	1.1531677
27	0x80000004	-6e-45
28	0x80000004	-6e-45
29	0xc026ff0b	-2.6093166
30	0xbfe4f0e2	-1.7886012
31	0x00000004	6e-45

square_avg f4 [4]
0	0x3b090e03	0.0020912893
1	0x3a94e87a	0.0011360787
2	0x38b9d7e2	8.861699e-05
3	0x3a1fa313	0.00060896686

momentum_buffer f4 [4]
0	0xbf22423b	-0.6338231
1	0xbb6bdac0	-0.003598854
2	0x40885b57	4.26115
3	0x3f619d8a	0.8813101
