AI2048/models/DQN.pt (torch, 7041 bytes, 12 tensors)

l1.weight f4 [16, 16]
000000 58 bc 83 3d ab cd 34 3e 71 fb c0 3d dc 54 66 3e
       0.06432408 0.17656581 0.09422959 0.22493309
000010 1e 92 db bd 6e fe 08 bd 9d 53 5c bd b4 0c e7 3d
       -0.10721229 -0.033445768 -0.053790677 0.1128172
000020 a2 1e 85 3d 26 01 ef 3d c4 7d 81 3d e2 eb 1b bd
       0.06499983 0.11670141 0.06322816 -0.038066752
000030 f2 a6 e5 3c 44 cb ff 3d 55 c5 4c 3e ef d6 f7 3d
       0.028033707 0.12489942 0.19997151 0.12101542
000040 ee 26 23 bd b3 1d 86 3d 94 76 85 bb ac af 31 bc
       -0.039832048 0.065486334 -0.0040729735 -0.010845106
000050 6a 93 af 3d 99 c0 27 3e 6f c6 07 3e 24 8b c5 ba
       0.08573039 0.16382064 0.1325929 -0.0015071374
000060 bf b8 7e 3e e8 2c 04 3e 8f 33 46 3e 4e 26 d2 3d
       0.24875163 0.12907755 0.19355606 0.10261212
000070 ed da 65 3e f6 6d 6a 3e 38 44 c7 3e 81 54 04 3e
       0.22446795 0.2289351 0.38919234 0.1292286
000080 da 8b 63 3e 71 cc 03 3e 1a bc 67 3e 90 53 3a 3e
       0.22221318 0.12870957 0.22630349 0.18195939
000090 cb b2 81 3e dd 30 e6 3d ba ec e1 3d 56 89 28 3e
       0.2533172 0.11239789 0.1103148 0.1645864
0000a0 25 f6 42 3e 56 68 f1 bd c6 22 0c bd 12 a1 ce 3d
       0.19039209 -0.117874786 -0.03421285 0.100893155
0000b0 ad 2c b6 3e 04 99 57 3e ff 9a fa 3d b4 53 7c 3e
       0.3558096 0.21054465 0.122365944 0.24641305
0000c0 02 94 b7 3e 8b 77 88 3b 33 ad cd b8 08 1f 62 3e
       0.35855108 0.0041646413 -9.8074226e-05 0.2208215
0000d0 7c d4 ec 3c e4 43 21 3e f0 1e d5 3c 62 a9 96 3d
       0.028909914 0.15748554 0.026015729 0.07356526
0000e0 0a 28 85 39 ef ea a0 3d c4 de 94 3d d4 dc 2a 3d
       0.00025397568 0.0785731 0.07269052 0.041714504
0000f0 2c 97 08 3e 55 77 d9 3d cb dc b1 3c 89 8c 80 bd
       0.13338917 0.10618464 0.021711728 -0.06276805
000100 02 6d 64 bf 5f ec 0c bf e6 50 8e be c8 28 8e bf
       -0.8922883 -0.55048174 -0.27796096 -1.1106195
000110 5a 5f 95 be 88 a3 76 3f e7 65 e2 bd 6f f2 10 c0
       -0.2917431 0.9634328 -0.110545926 -2.264797
000120 1f 24 ea bd 5e 47 73 3f 8d 5b 76 3f b1 e3 15 c0
       -0.11432671 0.9503077 0.96233445 -2.3420222
000130 51 cf c2 bf 96 fb 9c bf 0d 04 a1 bf 4c 7a 07 c0
       -1.5219518 -1.2264278 -1.2579361 -2.1168394
000140 bc 51 f6 3d 02 59 c9 3e 47 60 ae 3e 3d 9c 79 3e
       0.12027308 0.3932572 0.3405783 0.24376006
000150 1c 8d 0b 3e a9 50 12 be 74 0a 98 3e c3 70 91 3e
       0.13628048 -0.14288582 0.29695475 0.28406343
000160 13 7f 16 3d 1e 49 4b 3d 2e 8a 77 3e d0 c5 d1 3e
       0.03674228 0.049630277 0.24173805 0.4097123
000170 35 45 a4 bd a5 a5 72 3e 3f 95 16 3e ae 1a ac 3e
       -0.08021013 0.23696001 0.1470537 0.33614105
000180 de cf 31 c0 97 5c 47 c0 91 d3 39 c0 32 d8 e4 bf
       -2.7783122 -3.1150262 -2.903538 -1.7878478
000190 1c 44 80 bf 26 bc 6b be 76 fa 8c 3e 7e 1f 75 3f
       -1.0020785 -0.23020992 0.27534837 0.9575118
0001a0 24 0f 07 bf 2b d9 1b 3f 55 4b e6 3e 74 1d ab 3e
       -0.5275748 0.6087825 0.4497935 0.33420908
0001b0 a8 6f 70 bf 4f 1c 1c bd 2c df 38 bf f3 45 fa be
       -0.93920374 -0.038112935 -0.72215533 -0.48881492
0001c0 9b 71 1d be d3 72 b0 bd 54 a4 c2 bd cc af 02 be
       -0.15375368 -0.08615651 -0.09503999 -0.12762374
0001d0 09 ce 75 bd c5 0b 13 bd 3d 8e 09 bd 39 f6 8c bd
       -0.060010944 -0.035899896 -0.033582915 -0.06882901
0001e0 88 81 50 bd f7 25 03 3d 10 93 3e bd fd 28 8b bd
       -0.05090478 0.032018628 -0.04652697 -0.06794927
0001f0 2a 44 e6 bd 6a ed cb bd e6 66 14 be 26 b1 d3 bd
       -0.1124347 -0.099573925 -0.14492378 -0.10336523
000200 cd f8 a3 3e d0 b9 84 3e 8b 20 3f 3e 66 ee 20 3c
       0.32025757 0.25923014 0.18664758 0.009822464
000210 39 86 09 3e a0 c7 a1 bc ab 96 91 bc f4 13 68 bd
       0.13430108 -0.019748509 -0.01777204 -0.056659654
000220 be 72 5d bb 32 dc 17 bc 5a cc 71 3c 12 49 7e bc
       -0.0033790316 -0.009268807 0.014758194 -0.015520351
000230 85 4b 58 bd 73 cb 54 3b bc e9 f1 3c e9 ae 0d bb
       -0.052806396 0.0032469898 0.029530399 -0.0021619147
000240 9f 29 20 3f 2a 45 e8 3e 54 63 32 3e 06 b4 0d 3f
       0.6256351 0.45365268 0.17420703 0.5535282
000250 18 c3 c0 3d 42 ba c9 3e 2b 90 21 3e 52 ab 64 3e
       0.09412211 0.39399916 0.15777652 0.22330979
000260 ef 5b 00 3e 92 57 30 3e 67 e7 22 3e 68 77 c0 bc
       0.1253507 0.17220905 0.15908585 -0.023494437
000270 fb cb 63 3e 13 50 12 3e 02 e9 4a 3e e0 b4 ea 3d
       0.22245781 0.14288358 0.19815448 0.114602804
000280 f5 3c 1a 3d 58 fe 55 3e 5f 0a 8e 3e 15 0a 5b be
       0.03765579 0.20897806 0.27742288 -0.21390565
000290 7a 13 3d 3e 2e f2 a7 3e 4b 34 50 3e eb 02 ee bd
       0.18464461 0.32801956 0.20332448 -0.1162165
0002a0 47 27 3b 3c a7 78 e3 3d c5 84 a0 3d 01 ab 3d 3e
       0.011422939 0.11106997 0.07837824 0.18522264
0002b0 ef f8 b4 be 4d 8a 2a 3b fc 96 85 3e c0 6a 1f be
       -0.3534617 0.0026022375 0.26091754 -0.15568066
0002c0 af fc 8b 3d 24 5e 4f be 35 82 ac bd 9b 08 80 3f
       0.06835305 -0.20250756 -0.084232725 1.0002626
0002d0 a9 0f 1a bf 92 19 23 3f 53 a0 7d 3e b0 b2 b0 3e
       -0.60180146 0.6371089 0.2476819 0.34511328
0002e0 76 14 35 be a2 ab c6 3e 29 b0 ad 3e a0 b5 28 3f
       -0.17683586 0.3880282 0.33923462 0.6590214
0002f0 cc a0 40 be 12 ea 07 be 42 2d 92 3e 4e 0f 1c 3f
       -0.18811339 -0.13272884 0.28550154 0.60960853
000300 a1 65 a7 bd 7a 7c a1 3d c7 cc 64 3e f3 23 0a 3e
       -0.08173681 0.0788507 0.22343741 0.13490276
000310 94 f0 59 bd de b5 82 3c 44 a7 ac bc c6 1d f4 3e
       -0.05320795 0.015955862 -0.021075852 0.47678965
000320 d3 b6 f8 bc d7 61 08 3e 39 1e 47 3d bb 2f 11 3e
       -0.030360615 0.13318573 0.048612807 0.14178364
000330 09 74 26 be 63 d0 ff 3b a8 2e f6 3c fe d6 00 3e
       -0.16255201 0.007806824 0.030051544 0.12582013
000340 b1 23 4b 3e 8b ca 7b 3b 33 52 6b bc aa 82 1d 3d
       0.19837834 0.0038420286 -0.01436286 0.03845469
000350 51 45 8e 3e 41 ca af bb 88 eb a9 bc 4d f2 3c 3c
       0.2778726 -0.0053646867 -0.020742193 0.011532378
000360 d8 13 6d 3e 33 6b 01 3d 8b e9 7b 3b fe 35 df 3d
       0.23152101 0.031596374 0.0038438763 0.1089897
000370 d8 b0 c9 3d 3e ae c0 3d 2f 2b dc 3d d0 6e 36 3e
       0.098481834 0.09408234 0.10750424 0.17815709
000380 5e e7 2a bf cc 57 1c bf d8 28 67 bf 88 ad 93 bf
       -0.6675929 -0.6107147 -0.902967 -1.1537333
000390 eb 59 84 be 4e 67 3a be 45 8d b6 3f 2d 03 d2 bf
       -0.25849852 -0.1820347 1.4261862 -1.6407219
0003a0 f9 53 dd be 98 b4 94 be d5 4b 7e bf 81 fb cf bf
       -0.4322813 -0.29044032 -0.9933446 -1.6248628
0003b0 41 93 50 bf 88 e6 fb be 3f e1 e2 be b2 9b 06 bf
       -0.8147469 -0.4919932 -0.44312474 -0.5258132
0003c0 f7 21 15 3e ce 1f 94 3e 31 63 85 3e a6 f9 8c 3e
       0.14563738 0.28930515 0.2605224 0.27534217
0003d0 2c eb 8d 3e 47 b2 2b 3e 74 7e 89 3e 00 e3 43 3e
       0.27718484 0.16767226 0.2685429 0.19129562
0003e0 e0 2e 4d 3e 0a c6 7b 3c b8 c0 aa 3c 36 c8 19 3e
       0.20037413 0.01536704 0.020843849 0.1501778
0003f0 43 2a 8b 3d ea dd da 3d 8d 78 d0 3c eb fd 8b 3e
       0.0679517 0.10686858 0.025448108 0.27342162

l1.bias f4 [16]
000000 52 6b 94 3f a8 bd a2 bf 4a 89 a6 40 f4 56 9e bf
       1.1595252 -1.2714128 5.204259 -1.2370286
000010 53 02 26 c0 9a 92 21 3f f0 21 e6 40 cb 4e 72 40
       -2.5938919 0.6311432 7.1916428 3.7860591
000020 92 9a f3 be 90 17 4f 40 f5 84 b1 3f 48 00 aa 3f
       -0.47578865 3.2358131 1.38687 1.3281336
000030 70 be bf 3f d4 51 26 3f 65 2b ae c0 81 d8 16 c0
       1.4979992 0.6496861 -5.442797 -2.3569643

l2.weight f4 [8, 16]
000000 93 78 dd 3e d0 3e 1e bf e9 4a 70 3f 55 65 11 bf
       0.43256053 -0.61814594 0.93864304 -0.56795245
000010 f5 f1 84 3e a0 de bd 3e 97 20 d7 3d 96 3b 26 40
       0.2596585 0.37083912 0.10504263 2.5973868
000020 ec 1a c4 be 50 0f 3f 3e 76 fc 8c 3e 90 57 3f 3e
       -0.3830179 0.18658185 0.27536362 0.18685746
000030 21 77 34 be a6 0a 9b 3e e2 a9 26 bd 68 f3 4a bf
       -0.17623569 0.30281562 -0.040689357 -0.7927766
000040 a2 fc 84 3e 34 cd 41 bf 3b 38 07 3f 37 bb ba be
       0.25973994 -0.7570374 0.52820176 -0.3647096
000050 e9 0c 17 3e 56 38 d6 bc dd dd 02 3e 40 5b 1c 40
       0.14751019 -0.02614991 0.12779947 2.4430695
000060 74 7b 07 bf 2f ff ca 3e 64 d9 2c 3e 80 64 94 bd
       -0.5292275 0.39647815 0.16879803 -0.07245731
000070 44 0c bd be fa 24 d9 3d e9 7d b7 3e e7 a2 8a be
       -0.3692342 0.10602756 0.3583825 -0.2707741
000080 cb 6c 39 3f af 54 35 bf 75 02 3e 3f 10 0e ad be
       0.7243163 -0.7083234 0.742225 -0.3379979
000090 b2 cd 2d 3e 40 24 fc 3d 27 1d 96 3e f3 64 2e 40
       0.16972998 0.12311602 0.29319116 2.7249115
0000a0 45 29 84 be 28 db 84 3e 97 2d 2a 3e 64 cc 38 be
       -0.25812736 0.25948453 0.16618954 -0.18046719
0000b0 0d cf a2 bd a6 26 0e 3f 32 c3 cc 3d 14 bb 3d bf
       -0.07949648 0.5552772 0.09998168 -0.74113584
0000c0 9c f8 05 41 06 d9 1a 41 4e a7 03 41 52 fb 06 41
       8.373196 9.677984 8.228346 8.4363575
0000d0 27 97 18 41 cc 8b 15 41 54 c1 ff 40 3f cb 2d c0
       9.536902 9.34663 7.9923496 -2.7155302
0000e0 33 d5 ed 40 06 93 01 41 ee 25 0d 41 12 5f 08 41
       7.4322753 8.098394 8.82176 8.523211
0000f0 ac cc 1c 41 75 35 0b 41 93 bf 1f 41 db 13 1e 41
       9.799969 8.700551 9.984271 9.879848
000100 14 b6 75 be c1 50 b2 bf 9b 1b e0 3e c3 b9 d7 bf
       -0.23995239 -1.3930894 0.4377106 -1.6853565
000110 0c a9 21 bb 91 de 01 3f ef a5 b4 3d 67 28 3e bf
       -0.002466741 0.50730234 0.08820712 -0.742804
000120 1c c0 24 c0 8c 87 bc 3f b2 2e 21 3f c2 db bf bd
       -2.5742254 1.4728866 0.62961876 -0.09368087
000130 7e 3f e5 be 86 9c a7 3f 48 61 b1 bc 62 6f c0 bf
       -0.44775003 1.3094642 -0.021652833 -1.5033991
000140 68 68 26 3f d6 9b 35 bf e2 78 79 3f 1f 47 56 bf
       0.6500306 -0.7094091 0.9745008 -0.8370227
000150 21 42 22 3e 32 62 84 3e 86 d9 af bd fe 5b 32 40
       0.15845539 0.25856167 -0.08586411 2.7868648
000160 98 5a fe be f7 c1 be 3d 14 52 91 3c 15 36 5c 3e
       -0.49678493 0.093143396 0.017739333 0.21505006
000170 fc e5 fb be 00 78 e2 be 90 1b 12 3c ee 17 40 bf
       -0.49198902 -0.44232178 0.008917704 -0.75036514
000180 dd a5 71 bf e0 0e 16 bf 5f 41 28 3d 09 7a 3a c0
       -0.9439371 -0.5861645 0.041077968 -2.9136984
000190 2a 30 cf 3d 4a f7 4b 3f b8 17 2f be 9b 3c ef 3f
       0.101166084 0.7967421 -0.17098892 1.869037
0001a0 0b 7b be bf d7 38 1e 3f c6 18 b9 3e 31 eb 2f 3f
       -1.48813 0.6180548 0.36151713 0.6871825
0001b0 cd be a3 bd 31 e3 12 c0 d4 8b 8d be 5c 8e 1f bf
       -0.07995377 -2.2951167 -0.27645743 -0.623266
0001c0 d8 43 1c 3f db bc 2f bf 19 23 e9 3e b3 96 0a bf
       0.6104102 -0.68647546 0.4553459 -0.541362
0001d0 c4 54 ad 3d c1 d3 90 3e 3a 70 94 3e 95 42 41 40
       0.084634334 0.28286555 0.28991872 3.0196888
0001e0 9c 49 ce be 8f 1d c8 3e df 12 41 3e 0c 7e f5 3b
       -0.40290534 0.3908505 0.18854855 0.0074918326
0001f0 1b d7 09 bf ea 1c 16 3f 11 51 a3 3e 00 92 77 bf
       -0.5384385 0.5863787 0.31897786 -0.96707153

l2.bias f4 [8]
000000 de 88 0a c0 6b 93 b6 3f cd 38 4a bf 55 5a 5f 40
       -2.1646037 1.4263738 -0.7899292 3.4898884
000010 54 b6 53 c0 d2 c2 2e 40 b6 8d 24 3e 9c 10 b8 3f
       -3.3080034 2.730641 0.16069683 1.4380069

l3.weight f4 [4, 8]
000000 39 69 92 3f b9 70 d1 3f 01 8b 81 3f 0c d9 5c bc
       1.1438361 1.6362525 1.0120546 -0.013479482
000010 26 a0 2c 40 c1 d2 5c 3f 8a 3d ee 3e 32 fb 4c 3f
       2.6972747 0.86259085 0.46531326 0.80070794
000020 cf 78 91 3f e4 35 cb 3f 55 b5 7d 3f 49 e6 5a bc
       1.1364993 1.5875821 0.99104816 -0.013360568
000030 b3 35 2d 40 2a 11 61 3f 79 f3 e9 3e f4 89 53 3f
       2.7064025 0.87916815 0.45693567 0.82632375
000040 d0 6a 90 3f 16 1f cc 3f 9e 38 80 3f 2a 2d 57 bc
       1.1282597 1.5946987 1.0017278 -0.013133327
000050 52 33 2e 40 38 7b 55 3f b5 20 eb 3e d9 9a 4f 3f
       2.7218823 0.8339114 0.4592339 0.81095654
000060 b4 72 96 3f 8d e1 d3 3f 1c 68 82 3f 6e 41 60 bc
       1.1753755 1.6553208 1.0188022 -0.013687475
000070 48 34 2e 40 68 16 56 3f 59 58 e7 3e 52 c5 45 3f
       2.721941 0.8362794 0.4518459 0.7725421

l3.bias f4 [4]
000000 ea 8d 63 c0 f9 77 5f c0 46 26 69 c0 a0 47 6b c0
       -3.5555367 -3.4916975 -3.642961 -3.6762466

square_avg f4 [16, 16]
000000 07 cd 7c 3f 8a be 7e 3f 26 83 7f 3f 7d 21 2f 3f
       0.98750347 0.9950949 0.9980949 0.68410474
000010 6e fb 7f 3f ce ff 7f 3f 75 fb 7f 3f df f4 7b 3f
       0.99993026 0.999997 0.9999307 0.9842052
000020 ce ff 7f 3f ba ff 7f 3f ce ff 7f 3f af 96 73 3f
       0.999997 0.9999958 0.999997 0.951518
000030 ab ff 7f 3f ce ff 7f 3f da fd 7f 3f c7 f6 7b 3f
       0.99999493 0.999997 0.9999672 0.9842343
000040 ce ff 7f 3f ce ff 7f 3f ce ff 7f 3f ce ff 7f 3f
       0.999997 0.999997 0.999997 0.999997
000050 0e ff 7f 3f ce ff 7f 3f ce ff 7f 3f ce ff 7f 3f
       0.9999856 0.999997 0.999997 0.999997
000060 ce ff 7f 3f ce ff 7f 3f ce ff 7f 3f ce ff 7f 3f
       0.999997 0.999997 0.999997 0.999997
000070 ce ff 7f 3f ce ff 7f 3f ce ff 7f 3f ce ff 7f 3f
       0.999997 0.999997 0.999997 0.999997
000080 a6 31 7f 3f ce ff 7f 3f 3f fb 7f 3f ce ff 7f 3f
       0.9968513 0.999997 0.99992746 0.999997
000090 3b fe 7f 3f ce ff 7f 3f ce ff 7f 3f 41 fc 7f 3f
       0.999973 0.999997 0.999997 0.99994284
0000a0 ce ff 7f 3f ce ff 7f 3f ce ff 7f 3f ce ff 7f 3f
       0.999997 0.999997 0.999997 0.999997
0000b0 ce ff 7f 3f ce ff 7f 3f ce ff 7f 3f b8 ff 7f 3f
       0.999997 0.999997 0.999997 0.9999957
0000c0 ce ff 7f 3f ce ff 7f 3f be f7 7f 3f ce ff 7f 3f
       0.999997 0.999997 0.999874 0.999997
0000d0 8f ff 7f 3f ce ff 7f 3f ce ff 7f 3f ce ff 7f 3f
       0.99999326 0.999997 0.999997 0.999997
0000e0 ce ff 7f 3f ce ff 7f 3f ce ff 7f 3f ce ff 7f 3f
       0.999997 0.999997 0.999997 0.999997
0000f0 ce ff 7f 3f ce ff 7f 3f ce ff 7f 3f ce ff 7f 3f
       0.999997 0.999997 0.999997 0.999997
000100 40 c0 f6 3c 2b dd cc 3d cf b7 cd 3d e8 2f c1 3c
       0.030120969 0.10003122 0.10044824 0.023582414
000110 46 b0 37 3e b7 c6 7e 3f 57 ce fa 3e 2c b8 b4 3d
       0.17938337 0.99521965 0.4898555 0.088241905
000120 99 8e 5e 3e 44 2d 7f 3f 4b 68 47 3f b0 24 cc 3c
       0.21734084 0.99678445 0.77893513 0.024919838
000130 1a 0b 18 3d ea e5 41 3f 88 0b a7 3d de 0a 33 3d
       0.037119962 0.75741446 0.08156496 0.043711536
000140 f3 b0 7f 3f ce ff 7f 3f 10 6b 7e 3f 0b 82 7c 3f
       0.9987938 0.999997 0.99382114 0.9863593
000150 6a fe 7f 3f ce ff 7f 3f ce ff 7f 3f 8b b7 7f 3f
       0.9999758 0.999997 0.999997 0.9988944
000160 3c de 7f 3f ce ff 7f 3f ce ff 7f 3f 08 1c 7f 3f
       0.9994848 0.999997 0.999997 0.9965215
000170 a2 ff 7f 3f ce ff 7f 3f ce ff 7f 3f 9f a5 7d 3f
       0.9999944 0.999997 0.999997 0.9908084
000180 95 f5 3d 3c db d0 06 3c 7e 74 c5 3c 36 91 3a 3b
       0.011594196 0.008228506 0.0241034 0.00284679
000190 c8 ef 05 3d fd f4 cf 3e 95 a8 49 3e b8 42 28 3e
       0.032699376 0.406166 0.19693215 0.16431701
0001a0 5f d3 35 3d 13 df 79 3f 53 72 50 3e 24 1c 6a 3d
       0.044391032 0.9760601 0.20356111 0.057155743
0001b0 66 11 42 3c 24 dc 98 3d 0e fd 42 3d 91 aa bd 3c
       0.011844968 0.074638635 0.047604613 0.023152621
0001c0 50 f1 5e 3f 71 1e 29 3f df 3a cb 3e 5f df 83 3e
       0.87086964 0.66062075 0.39693353 0.25756356
0001d0 1f 8f 69 3f 63 5e 70 3f c0 24 48 3f 83 0b eb 3e
       0.9123401 0.9389402 0.78181076 0.4590722
0001e0 05 49 6a 3f 4c 6a 7f 3f 38 26 68 3f 47 76 b2 3e
       0.9151767 0.9977157 0.9068332 0.34855863
0001f0 20 5a 3d 3f 23 79 5a 3f ea 4f 33 3f 1d 57 fd 3e
       0.73965645 0.8534109 0.70043814 0.49480525
000200 ce ff 7f 3f ce ff 7f 3f 17 fd 7f 3f ce ff 7f 3f
       0.999997 0.999997 0.9999556 0.999997
000210 ce ff 7f 3f ce ff 7f 3f ce ff 7f 3f 21 fb 7f 3f
       0.999997 0.999997 0.999997 0.9999257
000220 e7 f9 7f 3f ce ff 7f 3f ce ff 7f 3f ce ff 7f 3f
       0.99990696 0.999997 0.999997 0.999997
000230 d5 fe 7f 3f ce ff 7f 3f ce ff 7f 3f fc fc 7f 3f
       0.9999822 0.999997 0.999997 0.999954
000240 ce ff 7f 3f ce ff 7f 3f ce ff 7f 3f ce ff 7f 3f
       0.999997 0.999997 0.999997 0.999997
000250 6f ff 7f 3f ce ff 7f 3f ce ff 7f 3f eb f4 7f 3f
       0.99999136 0.999997 0.999997 0.9998309
000260 a0 fd 7f 3f ce ff 7f 3f ce ff 7f 3f ce ff 7f 3f
       0.99996376 0.999997 0.999997 0.999997
000270 ce ff 7f 3f ce ff 7f 3f ce ff 7f 3f f1 f2 7f 3f
       0.999997 0.999997 0.999997 0.99980074
000280 dd 5b 7e 3f ce ff 7f 3f 94 db 7e 3f e1 71 7d 3f
       0.9935892 0.999997 0.995538 0.9900189
000290 00 b8 7d 3f ce ff 7f 3f ce ff 7f 3f cf b8 7e 3f
       0.99108887 0.999997 0.999997 0.99500746
0002a0 1b 8a 7f 3f ce ff 7f 3f ce ff 7f 3f 2b 30 7f 3f
       0.9982011 0.999997 0.999997 0.99682873
0002b0 d7 74 7d 3f ce ff 7f 3f ce ff 7f 3f 26 af 76 3f
       0.9900641 0.999997 0.999997 0.96361005
0002c0 b8 a3 a0 3d 4d 15 8e 3c 16 28 ad 3d f7 9e 84 3c
       0.07843727 0.017344141 0.084549114 0.016189082
0002d0 b0 74 5d 3c ab 6a 40 3e 96 b7 fc 3e 70 43 18 3d
       0.01351659 0.1879069 0.49358815 0.03717369
0002e0 d1 36 39 3d 05 b0 3d 3e 56 ac 89 3e e8 87 33 3e
       0.045218293 0.18524177 0.26889294 0.17532313
0002f0 c3 5e fc 3d 42 58 d8 3c 7f 2d 4d 3c 95 e4 17 3b
       0.12322762 0.026409272 0.012523054 0.0023177017
000300 4b ef 7d 3f ce ff 7f 3f 82 ad 7f 3f 26 c1 7e 3f
       0.9919326 0.999997 0.99874127 0.9951347
000310 de 8a 7c 3f ce ff 7f 3f ce ff 7f 3f f7 fa 7f 3f
       0.98649395 0.999997 0.999997 0.99992317
000320 68 fd 7f 3f ce ff 7f 3f ce ff 7f 3f c7 9f 7f 3f
       0.9999604 0.999997 0.999997 0.99853176
000330 0e 0f 7e 3f ce ff 7f 3f ce ff 7f 3f 8d 90 7d 3f
       0.9924172 0.999997 0.999997 0.9904869
000340 18 7b 7f 3f ce ff 7f 3f 03 4d 7d 3f 32 79 7e 3f
       0.997972 0.999997 0.98945636 0.9940368
000350 45 cd 7f 3f ce ff 7f 3f ce ff 7f 3f 35 3c 7e 3f
       0.9992259 0.999997 0.999997 0.9931062
000360 b9 fd 7f 3f ce ff 7f 3f ce ff 7f 3f 3a 76 7f 3f
       0.99996525 0.999997 0.999997 0.99789774
000370 ce ff 7f 3f ce ff 7f 3f ce ff 7f 3f ce e6 7f 3f
       0.999997 0.999997 0.999997 0.99961555
000380 dc a4 fe 3b 04 2f 75 3c 1d 2b 2a 3c 01 09 8d 3c
       0.0077711176 0.014964823 0.010386256 0.017216207
000390 04 11 67 3c 4e 76 75 3e 06 5c 6e 3f 59 ad b7 3b
       0.014103178 0.23970911 0.93109167 0.0056053814
0003a0 1f f6 91 3c c1 ac 9e 3d c1 92 d2 3c 2d 86 f2 3b
       0.017817555 0.07747794 0.025704743 0.007401249
0003b0 cd 12 e0 3b 61 a5 3d 3e d8 68 2b 3c 16 a5 5d 3c
       0.0068381787 0.18520118 0.010462008 0.013528129
0003c0 ce ff 7f 3f ce ff 7f 3f ce ff 7f 3f ce ff 7f 3f
       0.999997 0.999997 0.999997 0.999997
0003d0 ce ff 7f 3f ce ff 7f 3f ce ff 7f 3f ce ff 7f 3f
       0.999997 0.999997 0.999997 0.999997
0003e0 ce ff 7f 3f ce ff 7f 3f ce ff 7f 3f ce ff 7f 3f
       0.999997 0.999997 0.999997 0.999997
0003f0 ce ff 7f 3f ce ff 7f 3f ce ff 7f 3f ce ff 7f 3f
       0.999997 0.999997 0.999997 0.999997

square_avg f4 [16]
000000 9e 2e 1d 3e 8c e3 7f 3f 95 ee 72 3f e7 dd 7f 3f
       0.15349814 0.99956584 0.948953 0.9994797
000010 0c eb 2b 3b a2 c5 44 3e 0e b5 4b 3a 90 74 20 3e
       0.0026232628 0.19216016 0.00077708147 0.15669465
000020 e4 26 79 3f d2 f1 65 3f f0 64 22 3e ae b8 37 39
       0.9732497 0.89822114 0.15858817 0.00017521039
000030 b4 8a 75 3e b5 de 1b 3f df de 9c 39 d9 ea 7f 3f
       0.23978692 0.608867 0.0002992069 0.99967724

square_avg f4 [8, 16]
000000 ce ff 7f 3f ce ff 7f 3f ce ff 7f 3f ce ff 7f 3f
       0.999997 0.999997 0.999997 0.999997
000010 4d cd 7e 3f ce ff 7f 3f 54 37 5c 3f 1f 1f 2a 3b
       0.99532014 0.999997 0.86021924 0.002595849
000020 18 ee 7f 3f ce ff 7f 3f ce ff 7f 3f ce ff 7f 3f
       0.9997268 0.999997 0.999997 0.999997
000030 da 87 7f 3f ce ff 7f 3f d5 bf 76 3f ce ff 7f 3f
       0.9981667 0.999997 0.9638646 0.999997
000040 ce ff 7f 3f ce ff 7f 3f ce ff 7f 3f ce ff 7f 3f
       0.999997 0.999997 0.999997 0.999997
000050 ce ff 7f 3f ce ff 7f 3f 18 3d 20 3f f6 fe a8 3b
       0.999997 0.999997 0.6259322 0.005157347
000060 80 4e 7f 3f ce ff 7f 3f ce ff 7f 3f ce ff 7f 3f
       0.99729156 0.999997 0.999997 0.999997
000070 ce ff 7f 3f ce ff 7f 3f d2 06 7b 3f ce ff 7f 3f
       0.999997 0.999997 0.9805728 0.999997
000080 a0 ff 7f 3f ce ff 7f 3f ce ff 7f 3f 54 ff 7f 3f
       0.9999943 0.999997 0.999997 0.99998975
000090 c4 b4 7c 3f ce ff 7f 3f 2c f1 32 3f 9f 51 04 3b
       0.98713326 0.999997 0.6989925 0.0020190252
0000a0 d4 a7 79 3f ce ff 7f 3f 83 ff 7f 3f 22 ff 7f 3f
       0.9752171 0.999997 0.99999255 0.99998677
0000b0 43 04 7f 3f e8 fd 7f 3f c7 62 e5 3d ce ff 7f 3f
       0.9961588 0.99996805 0.11200481 0.999997
0000c0 b7 cc 09 3b d4 f2 85 3c 3b cf 8f 3c 3c 5e bf 3b
       0.002102656 0.016351141 0.01755487 0.005840091
0000d0 c8 5b 40 3c 21 62 6e 3c b2 2a 95 39 24 43 bf 34
       0.011740632 0.014549763 0.00028451305 3.5625374e-07
0000e0 0d 2e 0e 3a d0 f8 6f 3d ac 5f 92 3c 52 f3 87 3d
       0.0005423732 0.058586895 0.017867886 0.066382065
0000f0 78 16 55 3b 44 90 33 3b 8e a5 a5 3a 64 9a 94 3c
       0.0032514613 0.0027399221 0.001263784 0.018140025
000100 ce ff 7f 3f ce ff 7f 3f ce ff 7f 3f ce ff 7f 3f
       0.999997 0.999997 0.999997 0.999997
000110 c4 1d 75 3f ce ff 7f 3f 62 89 ee 3d ef c0 22 3c
       0.95748544 0.999997 0.116472974 0.009933694
000120 c5 54 46 3f ce ff 7f 3f ce ff 7f 3f ce ff 7f 3f
       0.774731 0.999997 0.999997 0.999997
000130 d3 c9 7f 3f ce ff 7f 3f 88 94 0e 3e ce ff 7f 3f
       0.99917334 0.999997 0.13923848 0.999997
000140 a2 66 30 3f 9c af 7f 3f 17 fa 7f 3f ba 91 55 3f
       0.68906605 0.99877334 0.9999098 0.83425486
000150 4d 71 5e 3f 72 7a 78 3f eb 4a b1 3d 2c 4e ae 3a
       0.86891633 0.97061837 0.086568676 0.0013298444
000160 11 dc 41 3d 23 ff 7f 3f 67 df 62 3f b3 49 7e 3f
       0.047329012 0.9999868 0.88622135 0.99331206
000170 44 f1 06 3f d8 ab 5d 3f 56 66 1c 3c 89 be 7a 3f
       0.5271189 0.8659034 0.009545883 0.97946984
000180 a0 37 ed 3d 24 4d 73 3f f8 a1 6e 3f 38 43 d8 3e
       0.11582875 0.9503958 0.93215895 0.42238784
000190 7d 20 32 3f e2 2a 7b 3f 52 d0 5d 3d 6e c4 d9 38
       0.69580823 0.9811231 0.054153748 0.00010383954
0001a0 6b c1 b4 3c 77 65 7e 3f 3e 33 7b 3f e6 cc 7e 3f
       0.022064885 0.99373573 0.98125064 0.995314
0001b0 4f fe ca 3e 2a 2a 06 3e 48 30 b8 3e fd e1 79 3f
       0.39647147 0.13102022 0.35974336 0.97610456
0001c0 14 ff 7f 3f ce ff 7f 3f ce ff 7f 3f 18 40 7f 3f
       0.99998593 0.999997 0.999997 0.99707174
0001d0 f6 4b 7a 3f 58 45 7f 3f ac 53 1d 3f f4 b3 a7 3a
       0.9777216 0.99715185 0.614558 0.0012794719
0001e0 4a a6 63 3f ce ff 7f 3f 04 35 7f 3f 7d 32 7f 3f
       0.8892561 0.999997 0.9969027 0.99686414
0001f0 31 d0 7e 3f 82 fd 7f 3f 05 49 62 3f cb 31 7f 3f
       0.99536425 0.999962 0.8839267 0.99685353

square_avg f4 [8]
000000 c2 7d 19 3e 90 0a 27 3e 71 0f 2c 3d ab 9f aa 37
       0.14989379 0.16312623 0.042006914 2.033993e-05
000010 4c 52 4e 3e 27 6f 30 3c 34 73 f3 3a 3b e8 fa 3c
       0.20148581 0.010768688 0.0018573762 0.030628314

square_avg f4 [4, 8]
000000 74 ba 7d 3f e4 7f 20 3f 9d 33 67 3f ce ff 7f 3f
       0.9911263 0.62695146 0.9031313 0.999997
000010 de 3c 22 3d 81 cf b1 3d 15 3e 97 3d 66 8d 1a 3f
       0.03960883 0.08682156 0.07384888 0.60372007
000020 b5 b3 02 3f 49 f9 64 3e 01 fd f5 3c 47 aa 7f 3f
       0.5105546 0.2236072 0.030027868 0.998692
000030 50 5b 1a 3b 6d 9c 9a 3b 46 84 c3 3d fc d0 0a 3e
       0.0023552962 0.0047183544 0.095467135 0.13556284
000040 fa 1f 7f 3f 7e 4d 06 3f d3 8e 12 3e ce ff 7f 3f
       0.9965817 0.52461994 0.14312296 0.999997
000050 91 a1 6a 3d b5 48 05 3d c2 bc aa 3d 9e 47 02 3e
       0.057282988 0.032540042 0.08336784 0.12722632
000060 ff a6 7f 3f 6d 62 ce 3e 3e ac 10 3f ce ff 7f 3f
       0.9986419 0.40309468 0.5651282 0.999997
000070 69 50 5d 3d 76 d4 b5 3d 86 c4 05 3e 01 25 7f 3e
       0.054031763 0.08878414 0.13063249 0.2491646

square_avg f4 [4]
000000 3c 98 25 3c 48 d6 c4 3a 02 13 7e 3c 8d 03 de 3b
       0.010107096 0.0015017474 0.0155074615 0.0067753256
