AI2048/models/DQN.pt (torch, 7041 bytes, 12 tensors)

l1.weight f4 [16, 16]
-0.6256402 -0.6423554 -0.8830115 -0.89493084 -0.81931055 0.23034857 0.11095798 -0.053273868
-0.32380572 -0.24523579 -0.6086433 0.072145775 -1.3338583 -0.13016382 -0.37331897 -1.1943482
-0.27846956 -1.0018189 -0.34198284 -0.35231408 -0.052951742 -0.21437487 -0.65404093 0.11009922
-0.3933968 -0.010633379 -0.28734484 -0.08283915 -0.7424238 -0.69931555 0.15853097 -0.905557
0.13639942 -0.028203601 -0.06884676 -0.8634087 -0.33099246 -0.13777867 -0.31550354 -1.1723853
-0.11261249 0.40403682 -0.24893397 -0.30255905 -0.70536834 -0.093875535 -0.48202872 0.04036368
-0.064663835 -0.7451991 -0.87524986 -1.0535356 -0.73747444 -0.7303964 -1.4159738 -0.69465554
0.33388123 0.30424714 -0.35810894 -1.0015842 -2.253163 -0.26334277 -1.2200662 -0.9654779
0.28388247 -0.45669687 -0.24779856 -1.5035335 -0.8460259 -0.532319 -1.4153906 -0.37205577
-0.4516425 -0.4718309 -1.0833365 -0.80767184 -1.1265604 0.0024058397 -0.020925958 -0.38005477
-0.2793701 -0.62078047 0.20699696 -0.20358206 -0.030948937 -0.31604564 -0.36180106 -0.21788184
-0.9184962 -0.19660969 -0.49213377 -0.7967454 -0.913625 -0.38819456 -0.4861681 -0.7169906
-0.33181515 -1.0145636 -0.24587847 -1.2473633 -0.0014245238 -0.38821292 -0.55895734 -0.82748795
0.29686382 0.010812241 -0.03567192 -1.3319776 -0.5102846 -0.99854857 -0.35653758 -0.03659443
-0.4622969 -0.8704535 -0.2763913 0.27433324 -0.32254288 -0.67571825 0.30772203 0.26243863
-1.3792275 0.45233878 -0.32282856 0.08534889 -1.1755406 -1.2383962 -0.45318687 -0.518974
0.0907628 -1.0826228 -0.7874774 -0.51152855 -0.5792743 -0.8253066 -0.43486378 -0.018584404
-0.49964088 -0.69370633 -0.17449741 0.43979192 -1.4220126 -0.2369652 -0.5758583 0.08653971
-0.3263645 -0.40784648 -0.49398977 -0.2867082 -0.50446063 -0.22517201 -0.59782785 -0.28216878
-0.52859694 -0.24799126 -0.7087759 -1.0289408 -0.32616094 -0.5164431 -0.37017292 -0.3373658
0.6819049 -1.5684619 -1.9647536 -1.1807866 0.70698136 -1.0360721 -1.1609067 -0.46056145
0.89218163 -2.3768182 0.06128603 -0.3632728 -0.01977344 -1.9449368 0.6489634 0.2716
-0.6292338 -0.24217029 0.40323102 -1.3804051 -0.4303314 -1.5348381 -0.828971 -1.9456844
-0.6506944 0.27851373 -0.6285469 -1.9282231 -0.6920048 -0.6348895 0.7708061 0.1601232
-0.21087226 -1.0513662 -0.7600971 -0.46276486 -0.09095007 -1.0070018 0.125791 0.6914273
-0.7747519 -0.79899436 -0.5491222 0.035810247 -0.49788338 -1.240675 -0.34698835 0.15123978
-0.0009399014 -0.27541038 0.10370805 -0.2742356 1.158152 -0.45085496 -0.36714682 -1.1434994
0.6101889 1.1851324 0.4699423 -1.0239064 0.55074996 -0.51108265 -0.31937563 0.47632638
-0.7130785 -1.5177445 -1.0879884 -0.7446169 -0.833326 -0.8663751 0.18342106 -0.12743744
-0.7075776 -0.48931637 -1.010447 -0.23291437 -0.05342608 -0.05872113 -1.2539741 -1.5380937
0.16909318 -0.94394326 -0.787135 -0.9579365 -0.27117974 -1.5652994 -0.79180056 -0.0510906
0.38438722 -0.16257443 -0.89849794 -0.25716507 -0.91468596 -0.6846134 -0.14773263 -0.79041696
00000000: f529 20bf 6771 24bf 0b0d 62bf 301a 65bf
00000010: 56be 51bf 7fe0 6b3e f03d e33d b335 5abd
00000020: ddc9 a5be 171f 7bbe 0cd0 1bbf 2ac1 933d
00000030: debb aabf aa49 05be aa23 bfbe 67e0 98bf
00000040: 9093 8ebe 9a3b 80bf 6018 afbe 8362 b4be
00000050: ede3 58bd 1685 5bbe 3a6f 27bf b37b e13d
00000060: 4e6b c9be a037 2ebc dd1e 93be 93a7 a9bd
00000070: 7c0f 3ebf 5806 33bf f155 223e 95d2 67bf
00000080: 4aac 0b3e 3d0b e7bc 88ff 8cbd 5a08 5dbf
00000090: d877 a9be da15 0dbe ae89 a1be b910 96bf
000000a0: 61a1 e6bd eadd ce3e 8ce8 7ebe 05e9 9abe
000000b0: 0593 34bf d141 c0bd 78cc f6be 6354 253d
000000c0: 796e 84bd 5ec5 3ebf 6010 60bf 41da 86bf
000000d0: 20cb 3cbf 42fb 3abf a13e b5bf f2d4 31bf
000000e0: 7bf2 aa3e 48c6 9b3e 0e5a b7be e933 80bf
000000f0: d333 10c0 ddd4 86be 212b 9cbf 8f29 77bf
00000100: 0b59 913e 2cd4 e9be e8be 7dbe c973 c0bf
00000110: 2795 58bf 0f46 08bf 852b b5bf 187e bebe
00000120: b03d e7be d293 f1be c5aa 8abf 95c3 4ebf
00000130: 2233 90bf 4bab 1d3b ea6c abbc 8a96 c2be
00000140: 9909 8fbe 78eb 1ebf 03f7 533e d177 50be
00000150: a088 fdbc bcd0 a1be fd3d b9be 6b1c 5fbe
00000160: 9122 6bbf 0d54 49be f5f8 fbbe 82f7 4bbf
00000170: 54e3 69bf 70c1 c6be 06eb f8be b28c 37bf
00000180: ade3 a9be 38dd 81bf 91c7 7bbe 9aa9 9fbf
00000190: 16b7 baba d8c3 c6be d417 0fbf 40d6 53bf
000001a0: 89fe 973e d325 313c b81c 12bd 3e7e aabf
000001b0: 03a2 02bf e1a0 7fbf 188c b6be 0be4 15bd
000001c0: 2eb2 ecbe 0ad6 5ebf 2983 8dbe 6875 8c3e
000001d0: 5724 a5be dffb 2cbf be8d 9d3e 5b5e 863e
000001e0: 878a b0bf f398 e73e c949 a5be 66cb ae3d
000001f0: 1d78 96bf c483 9ebf 1c08 e8be 7bdb 04bf
00000200: d9e1 b93d 6293 8abf 1e98 49bf 89f3 02bf
00000210: 524b 14bf 4b47 53bf 77a6 debe 523e 98bc
00000220: eed0 ffbe bd96 31bf 73af 32be 682c e13e
00000230: 8204 b6bf 01a7 72be 736b 13bf bb3b b13d
00000240: 3f19 a7be 41d1 d0be 3aec fcbe 6bcb 92be
00000250: 5524 01bf 7e93 66be 3f0b 19bf 6d78 90be
00000260: 2152 07bf 6cf1 7dbe 5672 35bf 55b4 83bf
00000270: 91fe a6be 9d35 04bf 4e87 bdbe 36bb acbe
00000280: 5291 2e3f 5cc3 c8bf 0c7d fbbf 0424 97bf
00000290: bbfc 343f 039e 84bf 9798 94bf b6ce ebbe
000002a0: 0466 643f ca1d 18c0 0f07 7b3d e4fe b9be
000002b0: e9fb a1bc b0f3 f8bf 7722 263f 280f 8b3e
000002c0: 7715 21bf 7dfb 77be 4c74 ce3e 1db1 b0bf
000002d0: 6654 dcbe 9375 c4bf 7237 54bf 300c f9bf
000002e0: e893 26bf 5a99 8e3e 73e8 20bf 04d0 f6bf
000002f0: 3a27 31bf 1e88 22bf 8c53 453f 56f7 233e
00000300: e6ee 57be 2b93 86bf b995 42bf 84ef ecbe
00000310: 0844 babd 6fe5 80bf 5bcf 003e 6101 313f
00000320: 2456 46bf e58a 4cbf 4693 0cbf c4ad 123d
00000330: 92ea febe 70ce 9ebf 75a8 b1be 9ade 1a3e
00000340: b763 76ba 9702 8dbe e364 d43d 9c68 8cbe
00000350: 533e 943f 76d6 e6be abfa bbbe 305e 92bf
00000360: 5735 1c3f 6bb2 973f 479c f03e 5d0f 83bf
00000370: f3fd 0c3f 50d6 02bf 3485 a3be 0de1 f33e
00000380: 508c 36bf 7445 c2bf 3443 8bbf 379f 3ebf
00000390: da54 55bf c2ca 5dbf bbd2 3b3e f67e 02be
000003a0: ce23 35bf ad87 fabe 5456 81bf 1b81 6ebe
000003b0: 4ed5 5abd 9185 70bd 3982 a0bf 41e0 c4bf
000003c0: c326 2d3e 44a6 71bf ae81 49bf 543b 75bf
000003d0: 12d8 8abe bb5b c8bf 71b3 4abf 6144 51bd
000003e0: 67ce c43e e979 26be f603 66bf 24ab 83be
000003f0: dc28 6abf d342 2fbf 3947 17be c458 4abf

l1.bias f4 [16]
1.8724799 0.08951386 0.70120865 -3.2601576 0.05734686 1.0742286 -1.6697803 0.761703
0.3938317 0.9426913 -1.9730682 0.96838593 -0.26012737 1.3554703 1.23494 -0.7560806
00000000: 6cad ef3f 0b53 b73d 6982 333f 6ca6 50c0
00000010: 8be4 6a3d 5380 893f 5cbb d5bf f8fe 423f
00000020: 4fa4 c93e 3854 713f 808d fcbf 24e8 773f
00000030: 6a2f 85be 0d80 ad3f 8412 9e3f 808e 41bf

l2.weight f4 [8, 16]
-1.0313121 -0.6228116 -0.43159232 0.9421528 -0.38259187 -1.3484436 -0.42769474 -1.8340322
-2.730929 -0.19509292 0.15990753 -4.8768144 -1.1707324 0.09970388 1.0046092 -0.59645426
-3.9093297 -1.6599829 0.67271715 -0.291164 -0.8664839 0.22308922 -1.0003643 -0.17919302
-1.2799523 -0.04548683 -0.61697704 -1.2220286 -1.1364647 -0.11192759 0.5036692 -0.43681234
-0.08868043 0.08153464 0.033006746 -1.2356666 -0.59924364 -0.33053944 0.02931904 -0.36643547
-0.7732691 -0.18065205 -0.14834408 0.011642418 -0.06632686 -0.72723454 -0.09575936 -2.1263573
0.26126492 -0.15950786 0.017117219 -1.0794656 -1.4500823 -0.53284556 -1.0025163 0.091042094
-0.17695622 -2.5802298 -0.4449982 0.0657702 -0.95808744 -0.22908978 -0.23979951 0.068301424
-0.8613876 0.45594254 -0.6573589 -0.42791104 0.9606301 -0.295886 -2.153435 -1.4774582
-1.935445 0.030068839 -0.24578892 -0.66297877 -2.0079043 -2.154555 -0.9939198 -1.1087484
0.48984954 0.018655993 -0.7930813 -0.54457974 -0.6978172 0.00011700136 -0.4101064 -0.23341687
-0.39458373 -0.5057315 -1.249203 -0.121142976 -0.31857395 -0.568385 -0.35067767 -1.5516307
-0.2997321 -0.24803963 -0.994543 0.03224551 0.42332685 -0.43396452 -0.34022015 -0.07913811
-0.64341813 -0.15723856 -0.025912931 -0.2953226 -0.03519501 -0.1831835 0.1522311 0.3486496
0.24315727 -0.75072336 -0.8378724 -0.1743306 -0.49617258 -1.6963044 -0.23164795 -0.61012524
0.12369622 -1.0127693 -0.25230083 -0.20235908 0.17791468 -0.25530115 -0.13028209 -0.30084622
00000000: 0902 84bf 9570 1fbf abf9 dcbe ed30 713f
00000010: 15e3 c3be cd99 acbf cefa dabe 91c1 eabf
00000020: 8ac7 2ec0 70c6 47be cdbe 233e dd0e 9cc0
00000030: 8fda 95bf 8c31 cc3d 0997 803f 3ab1 18bf
00000040: 7532 7ac0 527a d4bf 3137 2c3f 7313 95be
00000050: e4d1 5dbf 8071 643e f00b 80bf 607e 37be
00000060: 7ad5 a3bf 6650 3abd 35f2 1dbf 6f6b 9cbf
00000070: ad77 91bf 4b3a e5bd 77f0 003f dea5 dfbe
00000080: 169e b5bd a2fb a63d 1532 073d 532a 9ebf
00000090: 0868 19bf 773c a9be 7c2e f03c 6e9d bbbe
000000a0: f7f4 45bf dafc 38be 83e7 17be d7bf 3e3c
000000b0: 60d6 87bd 0b2c 3abf 7c1d c4bd 3d16 08c0
000000c0: 84c4 853e 0756 23be 6939 8c3c ee2b 8abf
000000d0: 4c9c b9bf 9168 08bf 7452 80bf 4774 ba3d
000000e0: 0334 35be 7c22 25c0 ced6 e3be 87b2 863d
000000f0: 3845 75bf 8396 6abe 018e 75be 9ee1 8b3d
00000100: e683 5cbf 4d71 e93e ac48 28bf 2817 dbbe
00000110: dbeb 753f 5f7e 97be e1d1 09c0 5a1d bdbf
00000120: a9bc f7bf ed52 f63c 17b0 7bbe fab8 29bf
00000130: 8181 00c0 3be4 09c0 8771 7ebf 78eb 8dbf
00000140: 8fcd fa3e 74d4 983c 6007 4bbf 9469 0bbf
00000150: 26a4 32bf a05e f538 77f9 d1be d504 6fbe
00000160: e106 cabe 9f77 01bf e2e5 9fbf cf19 f8bd
00000170: 201c a3be ae81 11bf 068c b3be d69b c6bf
00000180: 7c76 99be 1afe 7dbe 5f9a 7ebf de13 043d
00000190: 4cbe d83e 9930 debe 5631 aebe 2913 a2bd
000001a0: 0db7 24bf 2503 21be 5b47 d4bc 8634 97be
000001b0: a528 10bd 7594 3bbe 78e2 1b3e 3382 b23e
000001c0: 38fe 783e 682f 40bf ce7e 56bf b983 32be
000001d0: 550a febe 8120 d9bf 1f35 6dbe 2b31 1cbf
000001e0: 7254 fd3d 6da2 81bf 932d 81be 3837 4fbe
000001f0: 442f 363e d5b6 82be ab68 05be 8408 9abe

l2.bias f4 [8]
-0.727044 -1.7746414 -0.73538125 -0.28356972 4.0529923 -0.010825327 -1.7274108 -2.1959012
00000000: 8e1f 3abf 7327 e3bf f241 3cbf 0d30 91be
00000010: 1db2 8140 b65c 31bc cc1b ddbf a589 0cc0

l3.weight f4 [4, 8]
6.9656363 2.6719232 3.8309407 8.410619 0.03760754 3.810614 6.6174197 7.5679755
7.0269785 2.3818924 4.236664 7.8593903 0.07858288 3.5194116 6.650738 7.2784815
3.3764253 2.1402144 4.0247145 8.491094 0.0009615284 3.173038 6.6835938 5.536161
6.840641 2.6689286 3.6125982 8.239267 -0.13504864 3.7196522 6.7539215 7.632254
00000000: 7ee6 de40 ca00 2b40 222e 7540 e591 0641
00000010: 5d0a 1a3d 1ae1 7340 e7c1 d340 db2c f240
00000020: 02dd e040 ed70 1840 c092 8740 2080 fb40
00000030: 10f0 a03d 0a3e 6140 d8d2 d440 52e9 e840
00000040: 5a17 5840 46f9 0840 76ca 8040 85db 0741
00000050: 140f 7c3a 0e13 4b40 00e0 d540 3b28 b140
00000060: 88e6 da40 bacf 2a40 cf34 6740 0ad4 0341
00000070: 314a 0abe c80e 6e40 2020 d840 6d3b f440

l3.bias f4 [4]
3.85765 3.700117 3.9392715 4.5250907
00000000: bde3 7640 b8ce 6c40 061d 7c40 8bcd 9040

square_avg f4 [16, 16]
7e-44 3.178589e-22 7e-44 7e-44 7e-44 7.765637e-13 7.765637e-13 7e-44
7e-44 7e-44 7e-44 3.178589e-22 7e-44 7e-44 7e-44 7e-44
7e-44 7e-44 7e-44 7e-44 7e-44 7e-44 7e-44 7e-44
7e-44 7e-44 7e-44 7e-44 7e-44 7e-44 7e-44 7e-44
0.0013228011 0.0001324471 8.884427e-09 1.2035296e-05 0.0014056958 0.004606661 0.00023738027 8.710754e-06
0.0005593585 0.01231298 0.0020956928 0.00011874628 0.0004241676 0.0025161519 0.0010847034 7.019041e-05
7e-44 7e-44 7e-44 7e-44 7e-44 7e-44 7e-44 7e-44
7e-44 7e-44 7e-44 7e-44 7e-44 7e-44 7e-44 7e-44
4.1652518e-38 4.43444e-40 3.398068e-39 3.70753e-40 5.782862e-39 3.8405e-40 5.91e-43 7e-44
1.408561e-39 3.2649e-40 1.9037e-41 5.91e-43 3.4104e-40 2.679e-41 4.6035e-41 1.609e-42
1.65135e-40 7e-44 1.65135e-40 7e-44 7e-44 7e-44 7e-44 7e-44
7e-44 7e-44 7e-44 7e-44 7e-44 7e-44 7e-44 7e-44
7e-44 7e-44 7e-44 7e-44 7e-44 7e-44 7e-44 7e-44
7e-44 7e-44 7e-44 7e-44 7e-44 7e-44 7e-44 7e-44
5.999234e-07 9.511136e-37 2.1693786e-36 1.3904155e-17 3.665317e-36 3.9730066e-06 3.9730066e-06 5.999234e-07
5.999234e-07 3.9730066e-06 3.9730066e-06 2.3996936e-06 2.3996936e-06 2.3996936e-06 3.9730066e-06 2.3996936e-06
7e-44 7e-44 7e-44 7e-44 1.2065162e-16 7e-44 7e-44 7e-44
7e-44 7e-44 7e-44 1.2065162e-16 7e-44 1.2065162e-16 7e-44 4.826065e-16
7e-44 7e-44 7e-44 7e-44 7e-44 7e-44 7e-44 7e-44
7e-44 7e-44 7e-44 7e-44 7e-44 7e-44 7e-44 7e-44
3.03216e-06 3.40612e-06 2.1528222e-06 2.0371237e-06 2.1735175e-05 7.5264825e-06 2.0473934e-07 8.6896256e-07
1.7959846e-05 7.271768e-07 6.109326e-07 3.2170163e-08 5.8621725e-07 1.6587202e-07 3.25812e-08 8.609666e-09
8.7913e-40 7e-44 8.7723e-40 7e-44 7e-44 7e-44 7e-44 7e-44
7e-44 7e-44 7e-44 7e-44 7e-44 7e-44 4.78e-43 7e-44
7e-44 7e-44 7e-44 7e-44 7e-44 7e-44 7e-44 7e-44
7e-44 7e-44 7e-44 7e-44 7e-44 7e-44 7e-44 7e-44
0.00062114093 0.0003344213 1.2040969e-05 8.759993e-06 0.0006583595 0.0008720398 0.00013399686 5.2267883e-06
0.0021999492 0.0045031426 0.00030406617 0.00016923159 0.0048516565 0.002806826 0.0008081366 0.00014892082
7e-44 7e-44 7e-44 7e-44 7e-44 7e-44 7e-44 7e-44
7e-44 7e-44 7e-44 7e-44 7e-44 7e-44 7e-44 7e-44
1.0482159e-21 4.9254796e-26 2.6200497e-22 1.01528e-39 2.622016e-22 1.3364764e-38 7e-44 1.9831745e-38
4.1928634e-21 4.9254796e-26 5.2941e-41 2.6200497e-22 4.0462944e-37 3.221812e-37 4.9254796e-26 1.082e-42
00000000: 3200 0000 4822 c01b 3200 0000 3200 0000
00000010: 3200 0000 5095 5a2b 5095 5a2b 3200 0000
00000020: 3200 0000 3200 0000 3200 0000 4822 c01b
00000030: 3200 0000 3200 0000 3200 0000 3200 0000
00000040: 3200 0000 3200 0000 3200 0000 3200 0000
00000050: 3200 0000 3200 0000 3200 0000 3200 0000
00000060: 3200 0000 3200 0000 3200 0000 3200 0000
00000070: 3200 0000 3200 0000 3200 0000 3200 0000
00000080: d761 ad3a 7fe1 0a39 20a2 1832 34eb 4937
00000090: 533f b83a 79f3 963b 48e9 7839 6724 1237
000000a0: eaa1 123a 62bc 493c e457 093b 6c07 f938
000000b0: d062 de39 06e6 243b 9b2c 8e3a 3033 9338
000000c0: 3200 0000 3200 0000 3200 0000 3200 0000
000000d0: 3200 0000 3200 0000 3200 0000 3200 0000
000000e0: 3200 0000 3200 0000 3200 0000 3200 0000
000000f0: 3200 0000 3200 0000 3200 0000 3200 0000
00000100: 23c7 6201 24d4 0400 6e00 2500 8209 0400
00000110: 44f8 3e00 932e 0400 a601 0000 3200 0000
00000120: 7f56 0f00 1f8e 0300 1135 0000 a601 0000
00000130: aeb6 0300 ae4a 0000 5480 0000 7c04 0000
00000140: 54cc 0100 3200 0000 54cc 0100 3200 0000
00000150: 3200 0000 3200 0000 3200 0000 3200 0000
00000160: 3200 0000 3200 0000 3200 0000 3200 0000
00000170: 3200 0000 3200 0000 3200 0000 3200 0000
00000180: 3200 0000 3200 0000 3200 0000 3200 0000
00000190: 3200 0000 3200 0000 3200 0000 3200 0000
000001a0: 3200 0000 3200 0000 3200 0000 3200 0000
000001b0: 3200 0000 3200 0000 3200 0000 3200 0000
000001c0: 6c0a 2135 d7d2 a103 e28c 3804 423e 8023
000001d0: c5e7 9b04 de4f 8536 de4f 8536 6c0a 2135
000001e0: 6c0a 2135 de4f 8536 de4f 8536 6c0a 2136
000001f0: 6c0a 2136 6c0a 2136 de4f 8536 6c0a 2136
00000200: 3200 0000 3200 0000 3200 0000 3200 0000
00000210: 131a 0b25 3200 0000 3200 0000 3200 0000
00000220: 3200 0000 3200 0000 3200 0000 131a 0b25
00000230: 3200 0000 131a 0b25 3200 0000 131a 0b26
00000240: 3200 0000 3200 0000 3200 0000 3200 0000
00000250: 3200 0000 3200 0000 3200 0000 3200 0000
00000260: 3200 0000 3200 0000 3200 0000 3200 0000
00000270: 3200 0000 3200 0000 3200 0000 3200 0000
00000280: 1d7c 4b36 b294 6436 3479 1036 85b5 0836
00000290: ef53 b637 fe8b fc36 52d6 5b34 a742 6935
000002a0: 7aa8 9637 3633 4335 f8fe 2335 782b 0a33
000002b0: 8b5c 1d35 8e1a 3234 69ef 0b33 b6e9 1332
000002c0: a892 0900 3200 0000 5c8d 0900 3200 0000
000002d0: 3200 0000 3200 0000 3200 0000 3200 0000
000002e0: 3200 0000 3200 0000 3200 0000 3200 0000
000002f0: 3200 0000 3200 0000 5501 0000 3200 0000
00000300: 3200 0000 3200 0000 3200 0000 3200 0000
00000310: 3200 0000 3200 0000 3200 0000 3200 0000
00000320: 3200 0000 3200 0000 3200 0000 3200 0000
00000330: 3200 0000 3200 0000 3200 0000 3200 0000
00000340: 10d4 223a 4455 af39 9103 4a37 e2f7 1237
00000350: c295 2c3a 9a99 643a 8281 0c39 c561 af36
00000360: 062d 103b 198f 933b 126b 9f39 c273 3139
00000370: a5fa 9e3b baf2 373b 21d9 533a a127 1c39
00000380: 3200 0000 3200 0000 3200 0000 3200 0000
00000390: 3200 0000 3200 0000 3200 0000 3200 0000
000003a0: 3200 0000 3200 0000 3200 0000 3200 0000
000003b0: 3200 0000 3200 0000 3200 0000 3200 0000
000003c0: e366 9e1c dfe5 7315 4e5f 9e1b 300e 0b00
000003d0: bb7d 9e1b 8687 9100 3200 0000 d6f2 d700
000003e0: e366 9e1d dfe5 7315 9493 0000 4e5f 9e1b
000003f0: 32b0 0903 e243 db02 dfe5 7315 0403 0000

square_avg f4 [16]
1.9414093e-13 7e-44 2.8386215e-05 7e-44 5.83209e-40 4.1285e-41 7e-44 1.4998085e-07
3.0162906e-17 7e-44 6.001671e-08 2.19434e-40 7e-44 1.0514164e-05 7e-44 6.551349e-23
00000000: 5095 5a2a 3200 0000 ef1e ee37 3200 0000
00000010: c059 0600 1673 0000 3200 0000 6c0a 2134
00000020: 131a 0b24 3200 0000 89e2 8033 b163 0200
00000030: 3200 0000 fe65 3037 3200 0000 e366 9e1a

square_avg f4 [8, 16]
7e-44 7e-44 0.007994297 7e-44 9.2303e-40 7e-44 7e-44 4.4072973e-08
7e-44 7e-44 2.0663063e-05 7e-44 7e-44 0.016476259 7e-44 6.533605e-23
7e-44 7e-44 8.261043e-34 7e-44 7e-44 7e-44 7e-44 3.538e-42
7e-44 7e-44 7e-44 7e-44 7e-44 1.1362048e-33 7e-44 7e-44
7e-44 7e-44 7e-44 7e-44 7e-44 7e-44 7e-44 7e-44
7e-44 7e-44 7e-44 7e-44 7e-44 7e-44 7e-44 7e-44
5.5625426e-12 7e-44 7e-44 7e-44 7e-44 7e-44 7e-44 2.9306146e-15
7e-44 7e-44 7e-44 7e-44 7e-44 1.306817e-13 7e-44 7e-44
7.405953e-16 7e-44 7e-44 7e-44 2.9385e-41 3.8388e-40 7e-44 4.1018858e-19
2.640635e-19 7e-44 2.6995067e-13 1.04851e-40 7e-44 6.057506e-10 7e-44 7e-44
1.144237e-12 7e-44 7e-44 7e-44 7e-44 7e-44 7e-44 6.026907e-16
7e-44 7e-44 3.1550452e-20 7e-44 7e-44 2.6893962e-14 7e-44 7e-44
7e-44 7e-44 7e-44 7e-44 6.5662e-41 7e-44 7e-44 7e-44
7e-44 7e-44 1.200293e-39 7e-44 7e-44 7e-44 7e-44 5.3595e-41
7e-44 7e-44 7e-44 7e-44 7e-44 7e-44 7e-44 7e-44
7e-44 7e-44 7e-44 7e-44 7e-44 7e-44 7e-44 7e-44
00000000: 3200 0000 3200 0000 83fa 023c 3200 0000
00000010: 080d 0a00 3200 0000 3200 0000 bf4a 3d33
00000020: 3200 0000 3200 0000 9755 ad37 3200 0000
00000030: 3200 0000 38f9 863c 3200 0000 0ef9 9d1a
00000040: 3200 0000 3200 0000 9742 8908 3200 0000
00000050: 3200 0000 3200 0000 3200 0000 dd09 0000
00000060: 3200 0000 3200 0000 3200 0000 3200 0000
00000070: 3200 0000 cfc8 bc08 3200 0000 3200 0000
00000080: 3200 0000 3200 0000 3200 0000 3200 0000
00000090: 3200 0000 3200 0000 3200 0000 3200 0000
000000a0: 3200 0000 3200 0000 3200 0000 3200 0000
000000b0: 3200 0000 3200 0000 3200 0000 3200 0000
000000c0: eeb6 c32c 3200 0000 3200 0000 3200 0000
000000d0: 3200 0000 3200 0000 3200 0000 4c2c 5327
000000e0: 3200 0000 3200 0000 3200 0000 3200 0000
000000f0: 3200 0000 7022 132a 3200 0000 3200 0000
00000100: 4a76 5526 3200 0000 3200 0000 3200 0000
00000110: ea51 0000 1a2e 0400 3200 0000 f221 f220
00000120: 26e0 9b20 3200 0000 fef7 972a 4824 0100
00000130: 3200 0000 e981 2630 3200 0000 3200 0000
00000140: 7c09 a12b 3200 0000 3200 0000 3200 0000
00000150: 3200 0000 3200 0000 3200 0000 b9b6 2d26
00000160: 3200 0000 3200 0000 28fe 141f 3200 0000
00000170: 3200 0000 413d f228 3200 0000 3200 0000
00000180: 3200 0000 3200 0000 3200 0000 3200 0000
00000190: 0ab7 0000 3200 0000 3200 0000 3200 0000
000001a0: 3200 0000 3200 0000 ee11 0d00 3200 0000
000001b0: 3200 0000 3200 0000 3200 0000 6795 0000
000001c0: 3200 0000 3200 0000 3200 0000 3200 0000
000001d0: 3200 0000 3200 0000 3200 0000 3200 0000
000001e0: 3200 0000 3200 0000 3200 0000 3200 0000
000001f0: 3200 0000 3200 0000 3200 0000 3200 0000

square_avg f4 [8]
0.0009827266 5.8563148e-36 7e-44 8.29038e-13 0.0002381533 2.5793696e-13 4.047e-42 7e-44
00000000: d5ce 803a 9f19 f904 3200 0000 7c5a 692b
00000010: cab8 7939 a234 912a 480b 0000 3200 0000

square_avg f4 [4, 8]
8.917394e-05 1.4583757e-35 7e-44 1.3329915e-15 0.19921097 1.2897733e-14 7e-44 7e-44
4.732919e-06 5.734801e-39 7e-44 7e-44 0.03638979 1.4505585e-20 7e-44 7e-44
2.2381969e-06 7.2284715e-37 7e-44 7e-44 0.32675248 7.7303066e-21 7e-44 7e-44
5.7628977e-06 4.07845e-38 7e-44 7e-44 0.37580755 1.7511188e-18 7e-44 7e-44
00000000: e502 bb38 c314 9b05 3200 0000 b51a c026
00000010: f6fd 4b3e 4c58 6828 3200 0000 3200 0000
00000020: 77cf 9e36 4b72 3e00 3200 0000 3200 0000
00000030: 760d 153d 5a00 891e 3200 0000 3200 0000
00000040: ee33 1636 def8 7503 3200 0000 3200 0000
00000050: 1a4c a73e 7805 121e 3200 0000 3200 0000
00000060: ea5e c136 4c0d 5e01 3200 0000 3200 0000
00000070: d969 c03e b335 0122 3200 0000 3200 0000

square_avg f4 [4]
0.012301238 0.002247824 0.07267846 0.03411056
00000000: 228b 493c 3b50 133b 72d8 943d 84b7 0b3d
