AI2048/models/DQN.pt (torch, 7041 bytes, 12 tensors)

l1.weight f4 [16, 16]
000000 61 13 71 bc 6f c4 d0 3d 95 00 37 bd 98 10 a5 3c
       -0.014714093 0.10193717 -0.04467829 0.020149514
000010 9e 58 7e 3e 3b 92 11 3d 11 16 00 3e e9 0d 2d bc
       0.24838492 0.035539847 0.12508418 -0.0105623985
000020 07 5f 59 3e 2e a9 a3 3e 92 0a 8f 38 9b 61 db 3d
       0.21227656 0.3196501 6.82074e-05 0.10711976
000030 99 9f 65 3d 3f aa d6 3e 72 7e 6c 3d d1 83 0e bd
       0.056060407 0.41926762 0.057737775 -0.03479368
000040 55 64 f5 bd 47 a6 91 be 70 5f 22 be c9 5c 88 be
       -0.119820274 -0.28447172 -0.15856719 -0.2663329
000050 10 4d 15 3e 13 c2 f6 3d 3e d1 91 3d 83 f2 a4 3d
       0.14580178 0.120487355 0.07119988 0.08054068
000060 70 a4 6d bd 41 b6 5e 3e 7b ee 37 be 9e 96 d8 3d
       -0.058018148 0.21749212 -0.17962067 0.10575603
000070 cb 9a dd 3e be de 43 3e ba c5 97 bb c5 05 11 be
       0.4328216 0.19127938 -0.004631725 -0.14162357
000080 a3 ab 89 3d 57 85 1d 3f d0 36 b8 bd 3c cd 3c be
       0.0672219 0.61531585 -0.0899483 -0.18437666
000090 12 06 1f bf ce ed 5d 3e c2 07 53 be 4d ec 92 bd
       -0.6211864 0.21672747 -0.20608428 -0.07173977
0000a0 c4 16 f1 be 8b f9 66 3e e7 0f 2d be 6f 98 bc be
       -0.4708768 0.2255613 -0.16900598 -0.36835048
0000b0 b1 46 24 bf 15 4f 49 be c3 70 c1 be 74 bf ed 3d
       -0.64170367 -0.19659074 -0.37781343 0.116087824
0000c0 eb cf e0 3e 1e ed 5c 3e dc 20 a4 3c c7 79 84 be
       0.4390863 0.21574828 0.0200352 -0.2587416
0000d0 32 2d d2 3e e1 ae eb 3d e0 2e 1e 3d 7c 94 35 bf
       0.41050106 0.11507965 0.038618922 -0.70929694
0000e0 64 72 70 be c9 3d 8f 3e a0 c0 ff 3c 74 d7 16 be
       -0.23481137 0.27976826 0.03121978 -0.14730626
0000f0 b0 ec ae 3e 60 e5 50 3e c2 51 ae 3e 68 6e 51 be
       0.34164953 0.204 0.3404675 -0.20452273
000100 14 a1 70 3e 16 d4 7d 3e 7c f0 aa 3c 94 de 10 3e
       0.23498946 0.24787936 0.020866625 0.14147407
000110 bf 95 3e 3e d5 3a 57 bc 83 74 17 be fb e2 3e be
       0.18611811 -0.013136585 -0.1479054 -0.18641274
000120 a0 93 4a bd 57 7a f0 3b a5 35 09 3e 90 cb b3 bd
       -0.049457192 0.007338803 0.1339937 -0.08779061
000130 6d 8a 9c 3d c8 61 55 3e 1b 1d 3a 3e 12 dd 0c 3e
       0.0764359 0.20838082 0.18175165 0.13756207
000140 eb b3 04 3f 56 c3 8a 3e b6 c0 52 3e 17 bf 44 3e
       0.51837033 0.27102154 0.20581326 0.1921352
000150 36 17 2c 3f bd cc 0e 3e d9 1a 65 3e c9 30 42 3e
       0.6722292 0.13945289 0.22373523 0.18963923
000160 87 c8 9b 3e 53 bd 30 3e 72 51 80 3e e1 5f 54 3e
       0.30426428 0.17259721 0.25062138 0.207397
000170 70 53 00 3e 11 3f 83 be 6b 30 5a 3e d1 12 e7 3d
       0.12531829 -0.25634053 0.21307532 0.11282886
000180 0c 3a ea bd ab 0e cf bc 35 66 8c bd 83 15 8b 3e
       -0.11436853 -0.025275549 -0.06855432 0.2716485
000190 93 14 19 be d5 40 bc bb ac 63 0f 3e 56 d1 8a 3e
       -0.14949255 -0.0057450333 0.14002866 0.27112836
0001a0 fc b2 ec be 6a 62 c9 bb 0a e2 14 be 62 52 96 3e
       -0.46230304 -0.006145765 -0.14539352 0.29359728
0001b0 57 a8 01 bd d0 61 ac 3d 42 eb 4e be b5 88 01 3f
       -0.031654682 0.08417094 -0.20206931 0.50599223
0001c0 b4 de a6 be 47 20 c7 be 5e 8e 5d bd 68 06 5b be
       -0.32591784 -0.38891813 -0.05409085 -0.21389163
0001d0 14 98 4b 3d 58 79 9c bd 2b 47 0e be 27 d1 a7 3d
       0.04970558 -0.07640332 -0.13894336 0.081941895
0001e0 9f da 97 3e 9a 1b ab 3e 33 b8 19 3e 7c 22 d9 bd
       0.29658982 0.33419496 0.15011673 -0.106022805
0001f0 f7 20 51 3f e7 e1 c4 3e 40 60 75 3e 23 04 b0 3d
       0.81690925 0.384536 0.23962498 0.08594539
000200 26 e9 65 3e 14 02 b4 3d 94 ac 4b 3d 2f ea 99 bd
       0.2245222 0.08789459 0.04972513 -0.0751537
000210 00 58 9f 3e d4 2d 88 3d 13 42 b5 3c 35 35 91 3d
       0.31121826 0.06649366 0.022126233 0.070902266
000220 35 59 7e 3e fb ce 72 3d 73 36 1d 3e 9f 1b 35 be
       0.24838717 0.059279423 0.15352802 -0.17686318
000230 a3 19 b1 be cf fa af 3c c3 b9 a9 3d 25 3e 47 be
       -0.34589872 0.0214819 0.08287384 -0.194573
000240 91 2b 80 3e a5 79 f9 be 5f aa 7c bf 10 40 b2 be
       0.2503324 -0.4872562 -0.98697466 -0.348145
000250 81 e1 80 3e 76 70 9b 3d a1 93 62 3b f6 56 a3 3c
       0.25172046 0.075898096 0.0034572857 0.019938927
000260 21 bf b3 3e 5d 03 e5 3d 93 d0 2d 3d 7b 0b 0d 3d
       0.35106757 0.11182282 0.04243524 0.034434777
000270 43 83 a9 3d b7 7e 35 bc 8e d8 db bc 22 07 3d 3c
       0.08276989 -0.011077574 -0.02683666 0.011537345
000280 4d a8 14 3e a0 db b8 3d 05 36 1b 3d 15 f2 12 3e
       0.14517327 0.09026265 0.037893314 0.1435016
000290 d2 50 41 3e 85 08 a4 3d 94 06 0a bc 2d 1e 8e bd
       0.18878487 0.080094375 -0.00842442 -0.06939349
0002a0 7b a2 e3 3e 64 80 6c 3e 7a 41 d1 bc a3 d0 c9 be
       0.444599 0.23095852 -0.025543917 -0.3941699
0002b0 8e df 77 bd 56 33 e0 3d b1 14 19 bf 4b 70 3e bf
       -0.060515933 0.109472916 -0.597972 -0.74390095
0002c0 11 e3 37 bf 70 bd 51 3d e2 bb 8a 3d 58 54 5c 3d
       -0.7183085 0.051206052 0.06774117 0.053791374
0002d0 2a cc 6e bd 65 1c 82 bc fc 93 03 be 38 f5 70 be
       -0.058300175 -0.01588268 -0.1284942 -0.23531044
0002e0 2d c4 15 3e c7 0c 59 3e d3 fd 48 be 7d 27 75 be
       0.14625616 0.2119628 -0.19628076 -0.23940845
0002f0 ce 84 d4 be f2 ac 88 bd 9a 2d b9 be 4f 84 7c be
       -0.41507572 -0.06673612 -0.36167604 -0.24659847
000300 c5 c0 bb 3e 41 6a 4b 3e 80 75 5c bc b2 cf e2 3e
       0.3667051 0.19864751 -0.013455749 0.44299084
000310 bc 79 91 3e 7d 2a 49 3b f4 e5 63 3c 28 e5 fd 3c
       0.28413188 0.003069549 0.013909806 0.03099306
000320 74 b3 82 3d f6 75 89 bc b3 c2 e4 3d 30 98 c5 3d
       0.06381884 -0.016779881 0.111699484 0.09648168
000330 d5 b1 51 3d c3 2c 2f bc e7 16 60 3d e0 c6 0d be
       0.051194984 -0.010691824 0.05470934 -0.13845396
000340 33 e1 95 be f4 aa 9f 3d 4e f6 35 be ab 62 34 3f
       -0.29273376 0.077962786 -0.17769739 0.70463055
000350 c6 b0 13 bf 8b 5d 61 3e 48 62 79 3d 1e 7f 57 bd
       -0.5769161 0.2200834 0.060884744 -0.052611463
000360 f4 a3 9c be 84 5e 29 3d 8a 5b f9 bc 2a 54 20 3e
       -0.30593836 0.041349903 -0.030439157 0.15657106
000370 59 db 1f 3f 6f 79 9e 3e 47 2e 35 3e a4 8c 22 be
       0.6244407 0.3095202 0.17693435 -0.15873963
000380 36 61 a9 be 70 de 17 bf fb 75 b6 3e 3d 6c 6d 3e
       -0.3308198 -0.5932379 0.35636887 0.23185821
000390 d7 96 42 bf 4d 2f aa bd fd 27 7a 3a c3 69 92 bc
       -0.76011413 -0.08309803 0.0009542702 -0.017872697
0003a0 f1 a0 5f 3e 1a 51 1c 3e 0c 6a 1e 3e 63 12 76 bd
       0.21838738 0.15265313 0.15470141 -0.06007613
0003b0 d8 89 cf be 39 a1 bc bd a8 1e eb 3c ec be d8 bb
       -0.40534854 -0.09210438 0.028701141 -0.0066145565
0003c0 9b 77 c7 3e 7f 2a 87 bc 3f 65 48 3e df 84 cc 3d
       0.3895844 -0.016499756 0.19569872 0.09986281
0003d0 87 ff 14 3d e4 2c 84 3d d0 1f af bb 83 77 bd 3d
       0.036376502 0.06453875 -0.0053443685 0.09251311
0003e0 2f 5e 01 3e 8f 40 a2 3b ea 99 18 3d 46 0e 12 3d
       0.12633584 0.0049515436 0.03725616 0.035658143
0003f0 56 37 97 3e 21 5a 93 bc 84 73 0a 3d 5c a4 01 3f
       0.29534405 -0.017987313 0.03380157 0.5064142

l1.bias f4 [16]
000000 ba ad 29 c0 f3 f0 12 c0 ae 4f 02 bf fd 27 b8 3f
       -2.6512284 -2.2959564 -0.5090283 1.4387203
000010 56 90 1f 40 71 ba 01 40 61 78 e5 3f f3 ae 01 bf
       2.4931846 2.0270045 1.7927362 -0.50657576
000020 95 5e 1a c0 2a 67 a9 3f fa 35 da 3f fb f1 99 3e
       -2.4120228 1.3234608 1.7047722 0.3006743
000030 58 a8 e9 bf 95 ff f1 be 5e c9 a6 3f 13 39 22 c0
       -1.82545 -0.47265306 1.3030202 -2.5347335

l2.weight f4 [8, 16]
000000 ec 13 d2 bd 3f c8 b3 be 09 d1 5d 3c d5 98 a3 3e
       -0.10257706 -0.35113713 0.013538607 0.3195254
000010 a5 e3 9f 3e 1e fb 01 bd 7d 00 a1 3e 96 68 f7 3d
       0.31228366 -0.031733625 0.31445685 0.12080495
000020 f5 09 a6 be 1e bd 83 3b ac 11 06 3f d9 05 fb be
       -0.32429472 0.0040203473 0.52370715 -0.490279
000030 6c 30 ce be fc cf f7 bc 5f 7b 53 be 83 50 23 be
       -0.40271318 -0.030250542 -0.20652531 -0.15948682
000040 53 2f 38 bf 83 dc 9d be 72 c5 55 be 40 68 0e be
       -0.7194721 -0.308323 -0.208761 -0.13906956
000050 17 55 96 3d d0 f9 a2 3e ae 8c 9a 3c 5a 2b f4 be
       0.07340448 0.31831217 0.01886591 -0.47689325
000060 5b 70 fc bc 59 bc 05 bf 75 88 ed 3e e9 41 aa be
       -0.030815294 -0.5224052 0.4639317 -0.3325341
000070 2a 69 9a 3d ad 48 c4 bd 00 9d 96 3d 1f 2f f4 bd
       0.0753959 -0.09584174 0.07354164 -0.1192305
000080 17 28 27 be da 0c f7 bd c2 6d 56 3e fc 15 63 be
       -0.16323887 -0.12062998 0.20940307 -0.22176355
000090 69 bf c1 3d ca cf da 3d bf 96 93 3d 8e 41 9c 3e
       0.09460337 0.10684164 0.07206487 0.30518764
0000a0 e7 10 90 be ec cf 85 3d 0b 05 8d be 4f 51 f1 be
       -0.28137895 0.065337986 -0.2754291 -0.47132346
0000b0 ba d1 22 bf ef b4 01 3f 9e 95 cb 3e 6d 3d b9 be
       -0.6360127 0.5066671 0.39762586 -0.36179677
0000c0 53 21 3c be 7f fa 13 be 61 34 1a 3d 78 5d e5 bc
       -0.18372087 -0.14451025 0.03764761 -0.027998671
0000d0 94 0f 8b 3e a7 1c f7 3c d5 13 92 3d b6 19 67 bd
       0.27160323 0.03016503 0.07132689 -0.056421004
0000e0 d2 ac 88 bd bd 29 5d be ee 3b 23 bf 54 1e 53 3d
       -0.06673588 -0.21597953 -0.6376332 0.051542595
0000f0 e9 38 a7 be b4 36 10 3e 6b f4 9d 3e 83 05 83 be
       -0.32660607 0.14083368 0.3085054 -0.25590143
000100 f8 b9 d2 3d a0 70 8b be 24 64 bc bf e7 c0 8b 3e
       0.10289377 -0.27234364 -1.471806 0.2729561
000110 d8 0e 3e be 65 1f 33 3e 7b f5 c5 3c bf 2e b4 3b
       -0.1856035 0.17492445 0.024164906 0.0054987366
000120 c8 e5 14 bf 3b 74 0a bf 6b 15 1b bf 43 3e f6 bd
       -0.5816312 -0.54083604 -0.60579556 -0.12023594
000130 4b f4 97 be c4 b6 f8 3c 89 9b c8 be 1f 75 be 3d
       -0.29678568 0.030360587 -0.39181164 0.09299683
000140 0d f0 a1 be 76 12 70 bd 2d dc 25 3e c2 59 7f 3e
       -0.31628457 -0.058611356 0.16197272 0.24936584
000150 b7 2c dc 3e 64 c1 85 3e d0 a9 fb 3e c8 ac eb bd
       0.43002865 0.26124108 0.49152994 -0.11507565
000160 f0 3d 76 be e1 db 10 3f d3 92 ae 3d 06 5b 5a 3e
       -0.24047065 0.5658551 0.08524098 0.21323785
000170 f4 a5 98 be ba 3b 5c 39 d8 37 5b 3d 03 0f 07 bf
       -0.29814112 0.00021003085 0.053520054 -0.5275728
000180 4e 7f c5 3e 9f f4 2e be 44 a7 0f be 4c 6d f9 3c
       0.38573688 -0.17085503 -0.1402865 0.030447625
000190 f4 8a 07 3e 8e 8b 2e 3e d3 3d a2 be 6e 5b a4 3e
       0.132366 0.17045423 -0.31687793 0.32101005
0001a0 d4 c1 cc bd c0 4c b4 be 3b df 99 be 11 68 96 3d
       -0.09997907 -0.35214806 -0.30053124 0.07344068
0001b0 06 5f 57 3c 28 6c 01 3e 24 1a 33 bf 77 d7 a7 3e
       0.013145214 0.12638915 -0.6996176 0.32781574
0001c0 1e 64 44 bd 8d 05 db be b5 2f 34 bf a5 86 ec bd
       -0.04794704 -0.42777672 -0.70385295 -0.11549119
0001d0 44 77 8c 3e f2 f6 92 3e e0 0b 92 3d ae 6c 68 3e
       0.27434742 0.2870403 0.07131171 0.22697708
0001e0 1b 64 0c bf b1 03 29 3f ba ef 98 bd 06 36 c0 3d
       -0.5484025 0.6602126 -0.07467599 0.09385304
0001f0 82 ee fc be 5b a1 ca be c7 f6 8e be e7 b5 07 bf
       -0.49400717 -0.3957623 -0.2792265 -0.53011936

l2.bias f4 [8]
000000 4b 50 0f 40 9f ac 2e 3f 61 06 e1 3f e3 15 8a 3f
       2.2392757 0.6823215 1.7580072 1.0787929
000010 3d 2e 27 bf 7b 97 18 40 43 04 e0 bf b7 da 4e 3f
       -0.6530493 2.3842456 -1.75013 0.8080248

l3.weight f4 [4, 8]
000000 c3 6f 90 3f af 9e e5 3f 0b 06 af 3f c7 0a 26 3f
       1.1284107 1.7939051 1.3673719 0.64860195
000010 23 b2 ed be e8 e8 2d 3f 22 c3 14 bf 47 8d b3 3f
       -0.4642497 0.6793351 -0.5811025 1.402749
000020 56 fd 98 3f 60 87 9d 3f 02 d9 a9 3f c4 b5 54 3f
       1.1952312 1.2306938 1.326935 0.8308985
000030 96 ec 04 bf 36 3d 32 3f 0f 5c 0f bf 62 77 a3 3f
       -0.519235 0.6962465 -0.55999845 1.2770808
000040 70 67 99 3f 94 ea d8 3f bb 26 a5 3f 21 56 02 3f
       1.1984692 1.6946588 1.2902445 0.5091267
000050 e0 eb 05 bf 4f 25 39 3f 45 23 15 bf f1 42 bd 3f
       -0.5231304 0.72322553 -0.5825694 1.4786054
000060 b2 c2 9d 3f 41 c2 e3 3f 7d 9c 9a 3f 16 d6 ca 3e
       1.2325041 1.7793657 1.2079006 0.3961646
000070 47 ac fe be f2 22 2f 3f b1 e1 17 bf 07 66 b1 3f
       -0.49740812 0.684127 -0.5932875 1.3859261

l3.bias f4 [4]
000000 20 f4 be 3f 3e 29 93 3f 46 a0 8e 3f 77 a0 b4 3f
       1.4918251 1.1496961 1.1142662 1.411147

square_avg f4 [16, 16]
000000 9d 79 3c 3d 54 5b 25 3f 82 3d b8 3e 5b 51 cd 3d
       0.046014417 0.6459248 0.35984427 0.10025283
000010 01 83 4c 3e bf c3 4e 3f 35 81 3a 3f 7d e1 ba 3e
       0.19971849 0.80767435 0.72853404 0.3650016
000020 02 32 65 3e 95 05 1f 3f 02 f2 4e 3f fc 54 bc 3e
       0.22382358 0.6211789 0.80838025 0.36783588
000030 8e 20 8c 3d 22 48 28 3e 3a 09 ee 3e b0 2d 0c 3e
       0.06842147 0.16433766 0.46491414 0.13689303
000040 e7 12 b2 3b 81 f2 66 3c 25 dc 9c 3c cb 13 cc 3b
       0.0054343822 0.014095903 0.019147942 0.0062279454
000050 05 5f 1b 3d 8a ab a4 3e 68 77 a5 3e e8 a5 50 3d
       0.037932415 0.32162124 0.32317662 0.05093947
000060 6b 82 71 3d ea 12 e0 3e 29 60 12 3e e2 b4 b1 3d
       0.058962267 0.4376443 0.14294495 0.08677079
000070 c1 13 63 3c f5 0d a5 3d f1 a0 08 3d c3 2e 24 3c
       0.01385969 0.08059303 0.03335661 0.0100209145
000080 ae b2 83 3a da c2 2a 3d a8 3b a3 3a 85 ec b5 3a
       0.0010047758 0.04168973 0.0012453692 0.0013879692
000090 a9 e7 59 3a a3 dc 12 3e 2e 41 1d 3d dc cc 06 3b
       0.0008312413 0.14341979 0.03839224 0.0020568883
0000a0 90 7d ef 3a 15 e4 8b 3d 01 88 45 3c 18 1a 99 3b
       0.0018271673 0.068306126 0.012056352 0.0046723
0000b0 c8 d0 d9 39 43 0a b1 3a da b9 fe 3a ab 1c a3 3b
       0.0004154502 0.0013507087 0.001943405 0.0049777827
0000c0 50 df f7 3b 6d 5c 8e 3e 85 8b ae 3c 94 e5 25 3c
       0.0075644627 0.2780489 0.021306762 0.0101255365
0000d0 bd da ba 3c 21 fb ba 3e 84 65 65 3e 3a ba f3 3b
       0.02280938 0.3651972 0.22402006 0.0074379714
0000e0 76 c9 7c 3c 2f a9 c9 3e 1b 48 50 3e 22 9e 06 3d
       0.015428891 0.3938689 0.20340006 0.03286565
0000f0 e9 26 8e 3b 6d 53 0a 3d e6 d4 0e 3d 01 1e 0b 3c
       0.0043381345 0.033770967 0.034871005 0.00849104
000100 44 02 bd 3c 72 6f e2 3e 0c 05 bf 3d a6 15 2e 3d
       0.02307237 0.4422565 0.093271345 0.042501114
000110 24 a5 b3 3d c3 14 1e 3f 4e e9 c4 3e d5 40 96 3d
       0.087717324 0.6175043 0.38459247 0.073365845
000120 ee 49 f7 3d 4a 94 16 3f 3f 95 2f 3f ce ee 1e 3e
       0.12074648 0.5882002 0.68587106 0.15520784
000130 24 b5 e1 3c 1f 35 1c 3e c3 45 cb 3e a4 b4 9f 3d
       0.027552195 0.15254639 0.3970166 0.07798126
000140 16 e1 e4 3b d2 d9 db 3d db e5 53 3d 0e 20 57 3c
       0.00698484 0.10734905 0.05173288 0.013130201
000150 25 03 eb 3c 0a e8 b9 3e 74 de a8 3e c3 0d aa 3d
       0.028688023 0.36309844 0.32982218 0.08303406
000160 f4 10 3d 3d d4 d5 42 3e a9 6e 0f 3f 18 a8 c9 3d
       0.046158746 0.19026881 0.5602823 0.098465145
000170 10 ec 11 3c d6 fb df 3c 16 be 3e 3d e7 41 9c 3c
       0.008906379 0.027341764 0.046568 0.019074393
000180 5e ff bd 3c 35 ed fe 3e d1 51 85 3d 46 d0 5a 3d
       0.023193058 0.4979035 0.06509746 0.05342128
000190 a2 83 36 3d e8 e2 0b 3f 50 5c 26 3f 9f a0 1d 3e
       0.04455913 0.54643106 0.6498461 0.15393303
0001a0 56 6b e2 3c eb 46 10 3f 91 2d cc 3e 7c 98 4a 3e
       0.027639072 0.5635821 0.39878514 0.1978473
0001b0 37 34 af 3c 56 9b 13 3e 2e ba 66 3d c0 32 a6 3d
       0.021387203 0.14414725 0.0563299 0.081151485
0001c0 6a b0 1a 3b c0 f1 e7 3c 0b 31 6b 3d 18 e6 b7 3b
       0.0023603686 0.028313518 0.057419818 0.005612146
0001d0 7d e3 8d 3c e6 0b cd 3e a2 4a fc 3d 8f 4b c2 3d
       0.017320389 0.4004814 0.123189226 0.09487068
0001e0 3d 53 8a 3c 9a 25 d7 3d 42 15 fe 3e a0 d1 d8 3c
       0.016885394 0.10505219 0.49625593 0.026467144
0001f0 3d 02 a5 3b 92 d7 9d 3c cf 1d 42 3d cb 70 8f 3c
       0.005035667 0.019267831 0.04739171 0.017509839
000200 d8 fa a6 3c 91 3c af 3e 66 c2 94 3d 64 2d 05 3d
       0.020383283 0.34225896 0.07263641 0.03251399
000210 0c d7 b2 3d 80 af 19 3f 23 33 fd 3e 29 4b fa 3d
       0.08732423 0.60033417 0.49453077 0.12221367
000220 55 83 2d 3e 76 a0 1d 3f 84 28 35 3f a7 4b fc 3d
       0.1694463 0.6157297 0.70764947 0.12319117
000230 28 6e ca 3c a8 4f 3f 3e 48 95 79 3e 53 1a 71 3d
       0.02471073 0.1868273 0.24373353 0.058862995
000240 2f 01 83 3c 47 18 e9 3c 11 f6 b1 3c 07 c6 91 3c
       0.015991775 0.02845396 0.021723779 0.017794622
000250 b5 73 b6 3d cf 09 0c 3f cc fb cf 3e a6 44 e1 3d
       0.08908788 0.54702467 0.40621793 0.10999422
000260 8c 1d 2a 3e fb 71 24 3f ed 2f 25 3f 48 48 9d 3e
       0.16612834 0.6423642 0.64526254 0.3071921
000270 77 77 01 3d 61 b7 44 3e 86 69 34 3e de ea 8e 3d
       0.03160807 0.19210579 0.17618379 0.06978391
000280 1e c2 00 3d 1f a6 0d 3f 61 93 6b 3e 8f e7 1e 3d
       0.031435125 0.55331606 0.2300544 0.03879505
000290 c0 ae 1c 3e df d9 42 3f 15 32 29 3f 79 1b be 3d
       0.15301037 0.76113695 0.66092044 0.09282584
0002a0 db ed 06 3e 8c fc 22 3f 99 b7 19 3f dd 36 63 3d
       0.13176672 0.63666606 0.6004577 0.055472244
0002b0 b9 24 2c 3d 55 62 01 3e 16 b6 77 3d 6c 82 9d 3c
       0.04202721 0.12635167 0.060476385 0.019227229
0002c0 21 97 b5 39 d3 68 93 3b 33 d6 c2 3b 4c a6 af 3a
       0.0003463561 0.00449858 0.0059459447 0.0013401001
0002d0 e7 b5 46 3b 3d 95 d2 3c da a7 1f 3c 2c 3b 04 3b
       0.0030320825 0.025705928 0.009744609 0.002017687
0002e0 32 65 76 3c 7a 3e ac 3e 9d 76 8d 3c 84 4a 3c 3b
       0.015038775 0.33641416 0.017268473 0.0028730938
0002f0 53 4e 83 3a 82 e4 30 3c 78 38 3d 3b 42 4f c5 3a
       0.0010017849 0.010796668 0.002887277 0.0015053528
000300 23 38 3d 3d 56 4e 00 3f 1f b4 41 3e 22 67 d2 3d
       0.046196114 0.5011953 0.18916367 0.10273577
000310 83 a5 1d 3e 8a 3d 37 3f dd 46 31 3f 1b 67 90 3e
       0.15395169 0.71578276 0.69248754 0.28203663
000320 8d 35 89 3e 0c 2a 3b 3f 64 2e 47 3f 3c f3 ce 3e
       0.26798669 0.73111033 0.7780516 0.40419948
000330 2a 3c b6 3d 8d df ab 3e 1f ef 0a 3f ed 04 0e 3e
       0.08898194 0.33568993 0.5427112 0.13869067
000340 fc b4 e2 3a 78 1e 20 3d 07 01 40 3c 6c 79 ed 3b
       0.0017296369 0.039091557 0.011718995 0.0072471406
000350 0c 9d b7 3b c6 31 68 3e d8 6a 1a 3e a7 23 58 3c
       0.0056034382 0.22675237 0.1507982 0.013192094
000360 e9 97 f3 3b 35 01 08 3e 02 bc 6e 3e e9 27 ec 3d
       0.0074338806 0.1328171 0.23313907 0.1153105
000370 92 47 73 3b 00 e4 84 3c e5 b4 2f 3e 8d f0 d1 3b
       0.0037121517 0.016222 0.1715885 0.0064068497
000380 9f 7b 78 3b 9b 12 84 3b 58 52 49 3d 0c 7e ac 3c
       0.003791548 0.0040305383 0.049150795 0.021056198
000390 e8 3c d2 3b 23 98 18 3e 0d 11 99 3e 19 e5 6b 3d
       0.006415952 0.14901786 0.2989582 0.05759153
0003a0 1b 48 c0 3c ce 40 88 3e 8d 8f 1e 3f f8 ee 7a 3e
       0.023471883 0.26611942 0.6193779 0.24505222
0003b0 85 7a 8e 3b af a1 c2 3c e8 85 b7 3e ee 3b dc 3c
       0.0043481016 0.023758737 0.3584435 0.026884045
0003c0 35 32 76 3d 97 5d 15 3f 94 8c 8b 3e 9a 35 f1 3d
       0.060106475 0.5834593 0.2725569 0.11777802
0003d0 25 f2 53 3e 76 3f 45 3f 30 35 3f 3f 6c a7 b4 3e
       0.2069784 0.7704996 0.7469053 0.35283983
0003e0 20 2d 9a 3e b8 77 38 3f bd c0 59 3f ec 48 e3 3e
       0.30112553 0.72057676 0.8505972 0.44391572
0003f0 9a 1d cd 3d 23 ed a6 3e 85 08 0e 3f 31 df 44 3e
       0.10015412 0.32602796 0.5548175 0.19225766

square_avg f4 [16]
000000 17 af 85 3b a5 ad 2b 3a 94 09 1e 38 97 f9 94 39
       0.00407971 0.00065490074 3.7679056e-05 0.0002841472
000010 ad b4 14 3b 6d a0 7e 3a 13 5e ba 3a d6 5b 87 39
       0.00226907 0.00097132364 0.001421871 0.0002581763
000020 91 d0 0c 3b 8a d7 f1 3a 05 9b 01 3b a0 51 06 39
       0.002148662 0.0018451076 0.0019776237 0.00012809644
000030 ce e2 b7 3b f9 f9 12 39 73 cd e0 39 68 e3 cc 3b
       0.005611754 0.00014016767 0.0004287768 0.006252695

square_avg f4 [8, 16]
000000 ef 33 22 3f eb d2 50 3e ef eb a4 3e d0 88 2c 3f
       0.63360494 0.20392959 0.32211253 0.6739626
000010 20 1c ee 3e b5 ec 54 3f 99 f6 fe 3d d3 8d fb 3e
       0.46505833 0.83173686 0.124493785 0.4913164
000020 02 34 a2 3e c3 fb b0 3d 08 d0 b3 3e 95 e1 0b 3d
       0.31680304 0.0864177 0.35119653 0.03415068
000030 33 c9 bc 3e 11 b1 ce 3e c6 29 b0 3d 23 84 88 3e
       0.36872253 0.40369466 0.08601718 0.26663312
000040 8e b6 39 3e 27 1c bf 3b 58 eb 1e 3d ba 24 8d 3e
       0.18136045 0.0058322134 0.03879866 0.27567083
000050 02 4d 7c 3e 3b 36 36 3f 6f e2 ea 3d 9a 32 8c 3d
       0.24638751 0.711765 0.1146897 0.06845589
000060 89 21 72 3e 88 38 16 3c 5c 0c 71 3d 5e 7d b4 38
       0.23645605 0.009168752 0.058849677 8.60642e-05
000070 5f 4e 70 3e 15 96 fd 3d bc 8d 87 3d 27 2e 1f 3e
       0.23467396 0.123821415 0.066188306 0.1554495
000080 81 2b 8e 3e a8 35 60 3d b3 58 12 3c 70 c7 7e 3e
       0.27767566 0.05473867 0.00893228 0.24880767
000090 6c 3a 3a 3e 57 6a 2f 3f c5 42 db 3d 6b fb bf 3e
       0.18186349 0.68521637 0.10706095 0.37496504
0000a0 c8 f5 d5 3d 88 af 3c 3d ef bf 00 3d d5 ec fd 39
       0.1044727 0.046065837 0.031433042 0.00048432374
0000b0 78 36 e2 3d bd ed 5e 3e 3a a5 e2 3d 3b c6 ca 3d
       0.11045545 0.21770377 0.11066671 0.09901091
0000c0 09 e0 c1 3b 07 92 2f 39 2b f4 dc 39 13 57 21 3d
       0.0059165996 0.000167437 0.0004214359 0.03938968
0000d0 3e 76 e7 3c c5 bf fa 3d f2 f1 d1 3b c5 cf 0d 3d
       0.028254624 0.122436084 0.006407016 0.034621973
0000e0 ed 2c 31 3c 26 e5 88 3a 36 f7 b5 38 2e 24 13 35
       0.010813934 0.0010444268 8.676799e-05 5.4814416e-07
0000f0 8c 75 24 3c 0f c6 8c 3c 62 c9 51 3c 8c 76 00 3c
       0.010037791 0.017184285 0.012804361 0.007840764
000100 a8 d3 ad 3c 53 ab 94 3b 4a 1f 80 36 b9 d7 f6 3c
       0.02121909 0.004537025 3.81834e-06 0.030132161
000110 ea 14 27 3c ff 0b 06 3e fa 3b 7b 3c 30 f4 50 3c
       0.010197857 0.13090514 0.015334124 0.012753531
000120 da 69 59 3b a0 52 fb 39 a3 13 65 39 4f da 1f 36
       0.0033174665 0.0004793601 0.00021846457 2.3819919e-06
000130 09 fe db 3b 7f 65 6b 3c 98 84 1f 3a 19 15 de 3b
       0.006713633 0.01436746 0.00060851267 0.0067774174
000140 ee 4d fd 3e a3 bf e9 3d 13 89 26 3e c1 17 ff 3e
       0.49473518 0.11413505 0.16263227 0.4982281
000150 47 28 a7 3e 1d f8 4a 3f 04 52 b2 3d 37 7b c0 3e
       0.32647917 0.7928484 0.087070495 0.37594005
000160 39 51 82 3e d1 58 45 3d 37 00 30 3e 27 fa 41 3c
       0.25452593 0.048180405 0.17187582 0.011839426
000170 42 d8 93 3e 1e 90 90 3e e0 83 9b 3d d3 34 38 3e
       0.2887593 0.28234953 0.075935125 0.17988901
000180 9c e6 cf 3e 47 f4 9e 3d 3b 9f e0 3d 7d f3 d4 3e
       0.40605628 0.07761436 0.10967871 0.41592017
000190 3b 07 76 3e 43 b5 3e 3f 99 9b 61 3d 27 87 97 3e
       0.24026196 0.74495333 0.05508003 0.295953
0001a0 36 a5 38 3e b1 e4 fe 3c 94 74 f8 3d b8 81 01 3c
       0.18031773 0.031114908 0.121316105 0.0079044625
0001b0 70 41 55 3e 14 e0 4e 3e 46 80 52 3d 8e 9b 01 3e
       0.20825744 0.20202667 0.051391862 0.12656996
0001c0 38 42 72 3e f6 e1 dc 3c bb d2 9d 39 f2 8b 33 3e
       0.23658073 0.026963215 0.0003010238 0.17533854
0001d0 8b 43 da 3d 36 f3 0b 3f af b0 31 3d 11 45 a1 3e
       0.10657414 0.54667985 0.04338139 0.31498006
0001e0 6d 87 5e 3d be 5e 83 3d c4 4a 9d 3d be 02 47 3b
       0.05432837 0.06414555 0.07680276 0.0030366625
0001f0 d0 ef 59 3d ad 9a 03 3d 4c ec 4b 3d 3b 2a 30 3d
       0.05320722 0.032129932 0.049785897 0.043009024

square_avg f4 [8]
000000 01 48 82 3b 73 d9 10 3b 41 3c f5 3a d8 a5 3e 39
       0.0039758687 0.0022102266 0.0018709974 0.00018181594
000010 31 7e ae 38 0f 20 0f 3b 26 bf b8 3a 37 1f ec 3a
       8.3204715e-05 0.0021839177 0.0014095053 0.0018014674

square_avg f4 [4, 8]
000000 86 1b b5 3b b5 7e 03 3b 49 c4 a1 3b 39 5a 30 3a
       0.0055269627 0.0020064537 0.004936729 0.00067273114
000010 87 e4 e1 3a ef be 24 3d 41 89 cb 3c f2 0b 62 3b
       0.0017234244 0.04022115 0.024845721 0.0034491983
000020 41 9c b1 3c 40 b4 19 3a c7 a2 19 3c 01 fc 83 3a
       0.021680953 0.0005863346 0.009377188 0.001006961
000030 31 7b ee 3a 69 d6 b0 3d cf c5 09 3e 0c 3d c8 3a
       0.0018194673 0.086346455 0.13454364 0.0015276982
000040 b7 7f 97 3c d6 83 04 3a 65 9a 0e 3b 6e 56 b8 37
       0.018493516 0.00050550455 0.0021759507 2.1974756e-05
000050 e7 75 ca 39 cc b9 03 3e 13 1c a6 3d a9 75 d9 3b
       0.00038616286 0.12863845 0.081108235 0.0066363406
000060 44 98 2f 3c 57 b6 0d 3c e9 d4 14 3a 6b 10 96 38
       0.010717455 0.00864943 0.0005677478 7.1556155e-05
000070 43 54 f3 39 6c ed 80 3d c8 83 c0 3d 14 96 20 3a
       0.00046411352 0.06295285 0.09400135 0.0006125879

square_avg f4 [4]
000000 bc 54 e9 39 4f 57 3a 3a 0b 64 05 3a 6c 97 1c 3a
       0.00044504355 0.0007108347 0.0005088455 0.00059734914
